kasada-tests/userdata/Default/optimization_guide_prediction_model_downloads/e62bb377-1000-4a0e-b571-89dd5433d0ca/model.tflite (tflite, 409956 bytes, 166 tensors)

context_transformer_0/bottleneck_input/norm/add f4 [32]
00000000: d6db c03c c829 f13b acf2 2b3d 138a 343d
00000010: faea 693c 9bd4 ec3c 32de 2cbd d1b9 28bd
00000020: a6f5 8d3b 8c22 2c3d 5da0 f8ba c339 27be
00000030: 8cf1 68bc af1e 913c d1ee 12bd 9c0f 043e
00000040: 6c0f 60bd be73 d5bc 60b8 7abb 3391 ad3d
00000050: 3397 0fbb 76a8 ccbd 54f5 883c 7046 f3bc
00000060: 5ccf 29bd cc8b 1bbd b1c1 be3d f42a 643c
00000070: b616 24bd d850 ccbd 5c60 04bc 9ed1 04bd
0.023542326 0.007359717 0.041979477 0.04407699 0.014277214 0.028909972 -0.04220409 -0.041192833
0.004332262 0.042025134 -0.001896869 -0.16330628 -0.0142177455 0.017714826 -0.035872284 0.1289658
-0.054702207 -0.026056167 -0.0038256869 0.0847496 -0.002191019 -0.09993069 0.016718544 -0.029696673
-0.04145752 -0.037975118 0.093142875 0.013926256 -0.04006072 -0.09976357 -0.0080796145 -0.03242647

context_transformer_1/bottleneck_input/norm/add f4 [32]
00000000: f0c9 e33d dfe5 333c 2803 953d 8234 f7bd
00000010: f1d1 32be 2b65 a33c 7010 d3bc 00c8 913d
00000020: cad8 d5bd ff5b 113e 1c11 f5bd b86b 143e
00000030: 38fa a9be fe4f 463e 96f3 083e c451 933c
00000040: d569 ec3c 4677 a93d 7664 413e de9a 13be
00000050: deb2 513e 4453 9b3e fec2 61be dada de3d
00000060: 7c0e cb3d 1f3f 9cbd d0f7 5cbd a266 92bd
00000070: 2d79 ccbd 52d3 2cbd f710 373e 1aa3 cbbd
0.11122501 0.0109800985 0.07275993 -0.12070562 -0.17462899 0.019945702 -0.025764674 0.07118225
-0.1044174 0.1419525 -0.11966154 0.14494216 -0.33198714 0.19366452 0.1337417 0.017983325
0.028859058 0.08274703 0.18885979 -0.14414546 0.20478389 0.30336964 -0.2204704 0.108815864
0.09914872 -0.07629227 -0.05394727 -0.07148482 -0.0998405 -0.04219372 0.17877565 -0.099432185

mention_transformer_0/bottleneck_input/norm/add f4 [32]
00000000: f6fc ed3c 1cf8 99bd 9069 343d d06f 353d
00000010: c4cc dd3d e08b 513d 62d9 a03c b0a7 8dbd
00000020: 5090 1d3d 4047 8bbd 2c6a 29bd 40ea 26be
00000030: 9037 13bd cbfc 9dbb 8194 3bbe a5a5 533d
00000040: 9325 dbbd 197a c43d 33ef 58bd 8802 5c3d
00000050: 9882 cabd 0696 903d e4fb 983d 1c90 cdbc
00000060: 29fc 98bc 6648 6c3d 74ce 633d f24b d53d
00000070: d675 d8bd 2034 413d e7ce eb3b 1ad8 873c
0.029051285 -0.07518026 0.044045985 0.044296086 0.108300716 0.051158786 0.019634906 -0.069167495
0.038467705 -0.06800699 -0.04136102 -0.16300297 -0.03594166 -0.004821395 -0.18318368 0.051671643
-0.10700526 0.09593601 -0.052962493 0.05371335 -0.0988819 0.07059865 0.07469919 -0.02509313
-0.018674927 0.057686232 0.05561681 0.10414876 -0.105693504 0.04716885 0.0071962955 0.016582537

mention_transformer_1/bottleneck_input/norm/add f4 [32]
00000000: fdbb c53d 0772 823e b9e7 bcbe c5ab a3be
00000010: a1c0 0f3d 5445 a43c ec8e 9b3d 3640 93be
00000020: eef2 873e 1a94 00bf 4019 debe d6ea ba3e
00000030: a8b2 d43d f97d 843e b535 003e eba2 c8bd
00000040: 528a c43e 798c 91be 8412 9e3d 823a 81be
00000050: 002d 413b 5c64 b13e 3c90 5ebc 01a6 803d
00000060: 6ca8 f43d f66c b8bd 4a53 f0bc 1dce 093e
00000070: 1b4f 38bd c725 c1bd a646 f1be de6e 4a3d
0.096549965 0.2547762 -0.3689554 -0.31966987 0.035095815 0.02005259 0.075956196 -0.28759927
0.26552528 -0.50225985 -0.4337864 0.3650729 0.103856385 0.2587736 0.12520488 -0.09796699
0.3838678 -0.28427485 0.07718375 -0.2523995 0.0029476285 0.3464688 -0.013584193 0.06281663
0.119461864 -0.09005158 -0.02933659 0.13457532 -0.044997316 -0.094310336 -0.47124213 0.049422137

context_transformer_0/attention/value/add;context_transformer_0/attention/value/einsum/Einsum;context_transformer_0/attention/value/add/ReadVariableOp/resource f4 [32]
00000000: 377b 86bc 67a5 ccbc 3a20 cbbc 8687 d53d
00000010: 3df3 71bc c483 8b3d ef2e d73c 3a32 4d3d
00000020: 4e40 ebbc a03b d5ba c431 8bbb e1a8 033b
00000030: 1e3b 5bbd f18d 4fbd 9e79 b5bd d9e8 2cbc
00000040: 81ad 82bd ea67 1d3c e1eb 373d 4101 423d
00000050: e9b9 803d 5e02 9f3d f447 d3bc 9584 193c
00000060: b373 dcbc 02e8 f03c b609 29bd e6e5 8cbc
00000070: e22e 1dbd 4e1a 71bc 2767 76bd 3b39 923c
-0.016416175 -0.024981214 -0.02479564 0.1042624 -0.014767465 0.06812242 0.026267497 0.050096728
-0.028717186 -0.001626838 -0.004247876 0.0020089673 -0.053523175 -0.050672475 -0.08861087 -0.010553562
-0.063807495 0.009607295 0.044902686 0.047364477 0.062854595 0.077641234 -0.025791146 0.009369989
-0.026910638 0.029407505 -0.041269027 -0.017199468 -0.03837479 -0.014715744 -0.060156967 0.017849555

context_transformer_0/bottleneck_input/norm/mul f4 [32, 32]
00000000: 2225 253e 1f5b 98be 877f 30be b2df c33d
00000010: 22a6 20bd 1398 fb3d fb13 553d 548f 6ebd
00000020: a007 4a3d 66cd 02be e27f be3e 05d6 e6bc
00000030: 41fb f43d a5ae 7a3d 8a8d 623e 9293 25be
00000040: 09e4 4dbd 1659 fa3d 5bd1 0f3d 8b6a 1bbe
00000050: 49f8 89bd db21 b4ba cfa0 d8bd 15c6 163e
00000060: 19df 6d3d cbfe 363e 8913 abbc 0fae 3ebe
00000070: 03d3 bc3d 9aec 343e f1bc 623e 4b2c 8bbc
00000080: 83ae 023f f978 c43c 09f2 64bd 0a19 da3d
00000090: 7571 4c3c 8cd3 c1bd a190 813d 65f2 c0be
000000a0: 3500 103d a9e5 3e3e 70ea 43bd 2c21 2d3e
000000b0: c805 a63d 37ef 1d3e 0902 1bbd 5250 543d
000000c0: 7e32 09be ebc4 5abe 7591 05bf ae0c 003e
000000d0: fb51 a83e 9363 da3d aca0 703e 1211 2ebd
000000e0: 175c 90be 2c9e 203d c8dd 3e3d d844 47be
000000f0: f2cb 0dbc e45f 12bd a0b4 fabc 16e6 babd
00000100: 7a23 be3e 28b5 7bbe 9b4e 6b3e 535a de3d
00000110: a099 ae3e 8aee 35be 9ce7 963b 5a42 973e
00000120: 665e 4abd cf60 6ebd af46 8a3e 7910 213e
00000130: cd86 033e 8414 b6bd 52c2 4e3c 1ab7 533d
00000140: a11c a5bd 84da 233f 0351 94be ef81 913e
00000150: 67e5 ad3b a537 1b3e 9e1f 8e3b cfd3 1a3e
00000160: 3995 c7bd 40fc 30be 9026 703c 9287 70be
00000170: cd7c 083e 72a8 cfbe bc73 82bd 327d d6bd
00000180: ff29 62bf 9189 b0be 78d7 c93e 75ac e53d
00000190: 4ce4 b93e 1b48 69be 1c5c 03be 6bfe 05be
000001a0: a7bd 213f 8799 09bf 02ae 6cbe 6c1e bebe
000001b0: 5f81 7bbe cdf8 ee3e e035 993e 70c9 95bd
000001c0: d9f8 b43d 2eda 9f3e e70b a03c 0d9b 59bd
000001d0: c902 7bbe 8a57 9dbe 5f83 483e 265b 1b3e
000001e0: 4f64 cf3e f22f c5be 5e64 15bf 67c1 81be
000001f0: d3c0 ebbd bc02 47bf 8f27 55be bb58 5e3e
00000200: 5690 c4bd 1570 5fbe 22d4 b53d a508 0dbe
00000210: 1561 363e f9d9 e3bd 9270 993d f7d4 e83e
00000220: dafe 98bd beb1 803e b944 a23e e24b b53d
00000230: 261a d2bd 6b76 3fbe 9048 7dbe acdb e5bc
00000240: 509a 173e 55e5 7e3e 7406 2abd a73f a23d
00000250: e511 07bf b2f5 303a 5f24 13be 82bc d93d
00000260: e75b 843d dce1 17bd d464 e0bd 6004 793f
00000270: 0ea3 4ebd cfda 84be 2e95 ac3e 31f3 7bbd
00000280: f9de a6bd d2fc 143e 291c 563e 30b0 cb3c
00000290: a263 f13d 6f55 8cbe 3087 7e3d 50b2 d13c
000002a0: 62a3 16bc 4fcf 84bb 1ae6 103e ade8 6fbe
000002b0: 73c9 dcbc 7dc9 7a3e 80a7 3ebe 37c7 153e
000002c0: 16e1 f0bd 29c2 193f f8a1 603d dc12 9b3b
000002d0: 98cc 1f3e 48b8 813e 2967 01bd 6238 b33e
000002e0: 7a96 853e 9a13 1fbe 556f 45be a63c adbb
000002f0: 2c0e 203e b149 2f3e 9080 4dbd fe03 6a3e
00000300: 0c4c c83e a251 1ebe 074d 833e 1e7d 033e
00000310: f3ef ca3e f97e f63d 15dd 433e 2c76 b5be
00000320: fb73 873d e99d 9dbe 7d43 913e d025 09be
00000330: 8209 223e 5c96 44bd 15d7 05bd 03c5 d4be
00000340: 21d7 dbbc db0b 173b 3357 12be 65a1 bebd
00000350: df0b f53b 093b 7fbe 2d96 003e e33b 33bc
00000360: af80 e23c 90fc da3d b24d fabd f495 96bc
00000370: 5e2c e9bd 92e8 eb3d 80b7 8abe cf12 13bd
00000380: 105f ccbd 7b4d 803b 7be9 533e 4d9b 5cbe
00000390: 20a3 1fbe 95c7 b2bd 1870 37bd 6595 d6bd
000003a0: 2ae3 e7bc 84ef e7bc f3c9 0f3e 9c8e c7bb
000003b0: ccfb 8a3d c871 963d a418 1bbd 8c04 52be
000003c0: e8d1 81bd 1b18 343d a1dc b23d 183c 6ebd
000003d0: 3909 293b 4c65 80be 5734 2f3e 29d4 62bd
000003e0: 0f63 773e 7c50 933d f6bf 1c3e 4631 b53d
000003f0: 9840 b13d cabc e7bb c6a1 113e f041 883d
0.16127446 -0.2975702 -0.17236148 0.09564151 -0.039220937 0.12284865 0.052021008 -0.058242157
0.049323678 -0.12773666 0.37206942 -0.028178224 0.119619854 0.06120171 0.22124305 -0.16169575
-0.0502663 0.12224023 0.035111766 -0.15177362 -0.0673681 -0.0013743 -0.10577547 0.14724
0.05807409 0.17870633 -0.020883339 -0.18621086 0.09219935 0.17668381 0.22142388 -0.016988894
0.51047534 0.023983466 -0.055894885 0.10649307 0.012478222 -0.094641775 0.06326414 -0.37684932
0.035156447 0.18642296 -0.047831 0.16907185 0.081065714 0.15423284 -0.037843738 0.051834412
-0.13398167 -0.2136418 -0.52175075 0.12504837 0.32875046 0.106635235 0.23498791 -0.04249675
-0.2819526 0.039213344 0.046598226 -0.19459856 -0.008654581 -0.03573598 -0.030603707 -0.09125917
0.3713644 -0.24580824 0.22979204 0.10857072 0.34101582 -0.17766777 0.0046052467 0.2954281
-0.04940643 -0.058197793 0.27007052 0.1572894 0.12844391 -0.08890632 0.012619572 0.05168829
-0.08062101 0.64005303 -0.28968057 0.28419444 0.005306888 0.15157945 0.004337265 0.15119861
-0.09745259 -0.17283726 0.0146576315 -0.23489216 0.13328858 -0.405582 -0.06369731 -0.10473098
-0.8834533 -0.34479955 0.39422202 0.11214534 0.3630699 -0.22781412 -0.12828106 -0.13085334
0.6318001 -0.5374989 -0.23113254 -0.37132585 -0.2456107 0.46674195 0.29923916 -0.07313812
0.088365264 0.31221145 0.019536925 -0.053126384 -0.24512781 -0.3073085 0.19581364 0.15171489
0.40506217 -0.38513142 -0.58356273 -0.25342867 -0.11511388 -0.7773855 -0.20815872 0.21713535
-0.095978424 -0.218201 0.08878352 -0.13772829 0.17810471 -0.11125559 0.07492174 0.4547498
-0.07470484 0.25135607 0.31693056 0.08852364 -0.10258894 -0.18697517 -0.24734712 -0.02805885
0.1480496 0.2489217 -0.04151006 0.07922297 -0.5276168 0.00067504786 -0.14369343 0.10631658
0.064628415 -0.03708063 -0.109567314 0.972723 -0.05044847 -0.25948188 0.33707565 -0.061511222
-0.081479974 0.14549568 0.2090918 0.024864286 0.117865816 -0.2740893 0.062140644 0.025597721
-0.009194227 -0.0040530334 0.14150277 -0.23428603 -0.026951527 0.24490924 -0.18618584 0.14626776
-0.11761682 0.6006189 0.054841965 0.004732473 0.1560539 0.25335908 -0.03159252 0.35003954
0.26091367 -0.15534821 -0.19280751 -0.005286771 0.15630406 0.17117955 -0.050171435 0.22853085
0.3912052 -0.15460828 0.25644705 0.12840697 0.39636192 0.12035937 0.19127305 -0.3544172
0.066139184 -0.30784538 0.28371802 -0.1339333 0.1582394 -0.047994956 -0.03267582 -0.41556558
-0.02683598 0.0023047838 -0.14291076 -0.09308127 0.007478222 -0.24924864 0.12557288 -0.010939571
0.027649252 0.10692704 -0.122218505 -0.01838205 -0.113854155 0.11518969 -0.27093124 -0.03590661
-0.09979069 0.0039154864 0.20694534 -0.21543618 -0.15589571 -0.087294735 -0.044784635 -0.104777135
-0.028306562 -0.028312452 0.14041881 -0.0060899984 0.06786308 0.07345921 -0.037865296 -0.20509547
-0.063388646 0.0439683 0.08733488 -0.05816278 0.002579285 -0.25077283 0.1710981 -0.055378113
0.24158882 0.071930856 0.15307602 0.08847289 0.086548984 -0.007072066 0.14221868 0.066532016

context_transformer_0/kq_shared_bottleneck/norm/mul;context_transformer_0/kq_shared_bottleneck/norm/add;context_transformer_0/attention/key/einsum/Einsum;context_transformer_0/attention/key/add;context_transformer_0/attention/value/einsum/Einsum;context_transformer_0/attention/key/add/ReadVariableOp/resource f4 [32]
00000000: 1c02 46be a22e 133c 576d 923d 2368 53bd
00000010: 6f7e 563c dd5b 61be e3ac 0fbe 081f f13d
00000020: 9e71 563e e96c fabd 18f8 0cbe a2c3 e8bd
00000030: fca7 b43d b185 47be d1b5 e6bd fd58 833c
00000040: b59f ee3d 5c11 d1bc 4128 873d 297f b23d
00000050: 21a8 793c ebfd 3c3b 5d70 febc ae34 98bc
00000060: bbb1 023d e877 a23e 1d18 c6bd 353f bebd
00000070: 55f5 3f3e b06c 5bbe 3e69 fdbc 872a 263d
-0.19336742 0.008983286 0.07149761 -0.051612984 0.013091668 -0.220077 -0.14030795 0.11773497
0.20941779 -0.12227804 -0.13766515 -0.11365439 0.08821103 -0.19484593 -0.112651475 0.016033644
0.116515554 -0.025520973 0.06599475 0.0871566 0.015237839 0.002883787 -0.031059438 -0.018579807
0.03190778 0.31732106 -0.09672568 -0.092893995 0.1874593 -0.2142818 -0.030933972 0.0405679

context_transformer_0/kq_shared_bottleneck/norm/mul;context_transformer_0/kq_shared_bottleneck/norm/add;context_transformer_0/attention/key/einsum/Einsum;context_transformer_0/attention/key/add;context_transformer_0/attention/value/einsum/Einsum;context_transformer_0/attention/key/add/ReadVariableOp/resource1 f4 [32, 32]
00000000: 5b28 453f 5787 833e 1fb6 7ebe f9d7 a73d
00000010: 7965 90bb c549 013d e067 9c3e ca62 8fbd
00000020: 9e17 263f e4f4 41be b957 ac3e 2516 f6bd
00000030: d046 303e 1700 14bb e12b a53c 402e d2bb
00000040: b069 6bbc 2190 cd3d dac7 8bbc b60e ebbd
00000050: e56e 97bd e323 63be 6554 d5ba 75dd 6bbd
00000060: 826e 993c fa78 90be 642d a2be 22fd 48be
00000070: 86a5 033e 01d2 20ba cead 43bd 3a04 de3d
00000080: 6b7d 883e 690e f43e 1b93 233e ab0d 25be
00000090: 2389 883e 187a 083d f3a0 673e 823a 493e
000000a0: f9ea 283e 0a43 9fbd 2ec7 fc3e 51f1 a6be
000000b0: 1b04 7abd 0096 873c aca9 7fbd 6f4f 6dbe
000000c0: 93a8 a7be 8bf7 45be 3884 4a3d c0c2 fa3d
000000d0: b426 543e d9e5 043e 0e1e 2cbe dff9 7f3d
000000e0: 1566 3a3e e730 063e 1014 11bf 208f 203e
000000f0: 477e 02ba f3c5 fa3d 1c42 e8bd 9f35 e13d
00000100: 0d23 c7be e0b9 883e 3f5c 403f ef07 2f3f
00000110: 9f11 68be ad63 d13e 491a 03bf 6be2 8a3e
00000120: 5654 dcbe 8c54 b4bd afb6 1abc 7ac2 8e3d
00000130: 8698 1cbd af08 1c3e 93d3 59be 660c 21be
00000140: fc33 d8bc 2bbf 543d 840b 4c3d e1a8 c0bd
00000150: 34ed c23d 4352 0ebe 044f db3c 51d7 8b3c
00000160: ba60 bfbd 2176 adbe a29c 21be 651a 1fbf
00000170: 2907 8bbe f7bf 40bf 795a f5bd fd39 43be
00000180: 2df0 b03e 08fe 0d3f d7d2 913b 4b1f a2bd
00000190: 55a0 333e 6635 533d 016d 843e ba89 083e
000001a0: e027 793e e5be 05bc ea85 f53e 665c bfbe
000001b0: 8f25 0fbe 7f41 273e 1b04 23be bf05 78be
000001c0: cf85 cbbe 2e99 65be 7c1f 263e 902f 0d3e
000001d0: bf32 a93e a180 183e 9cec 97be 1ade 7e3d
000001e0: f1df 393e 0d44 79be c18d 14bf ed6c 4e3d
000001f0: 7348 eabc 9c5a 95bd 3e02 5cbe 3da6 df3d
00000200: 39d1 663e 3311 313e 3f45 093f 013a 4dbe
00000210: 60f0 513e 1cb0 91be 6d18 f8bd 6b38 05be
00000220: e065 c53e 37e0 d4bd 7564 bd3e c92e 59be
00000230: 0a4d 563e 1c81 aebe e22d 8d3e 54b7 393e
00000240: c313 e63d 0c89 893d 7420 8cbe ce4c 893c
00000250: 4078 59be 2647 67be d098 663e e33c 5a3d
00000260: dbfa 4d3e a97c 9d3f 3d3a a8be ab86 083e
00000270: 67ca c83e a29f 1d3f 2ad8 453e 8cbd e63d
00000280: 46e5 ee3e a96d f83e 28b7 873e 73b0 3ebd
00000290: 61cd b73d e1b9 b13d e20e a23e 65db 213e
000002a0: fd8a ed3e d393 54be 5947 e93e c00b 53be
000002b0: a309 b73d 2da9 5b3d e079 cdbc e058 e7bd
000002c0: b4f2 673c 82d3 013e ca5b 8ebd 3a23 29be
000002d0: bb12 c03b b635 a8be 3843 bd3d f5ff 983e
000002e0: 4f0b b83e 7534 90be fefb c9be 4f80 9dbd
000002f0: 3204 843d 1e3e fb3c 1b66 53bd 9123 56bd
00000300: 04f1 c33e 1b59 283d 170d bbbd 7d5c 08bf
00000310: 23f0 753e ba1c 4cbe 6eee 143f 0130 8a3e
00000320: dd62 d53e e349 a33d e4d0 8d3e 7f9f 6fbd
00000330: 038b d3bd 7a22 cfbd 645a 7e3c 0d9b 90be
00000340: a50f 9a3d da6b 363d 7269 e7bd a6d7 903c
00000350: 327e ae3c b09e 543d db42 6a3b 199c a63e
00000360: b4ac 9b3e b195 87be dae0 b43d e1ce ef3e
00000370: ed3d 04bd 19d9 cb3e 7bf7 3cbd cc72 46bc
00000380: 20aa c3be e204 b6be f2f1 383e 6fee 6d3e
00000390: d064 03be 5772 4bbb 1736 c8be 996b 4fbc
000003a0: d9fe 9cbe 88fa eb3d 97c0 a4be f01a 863e
000003b0: bf5e 7e3d 1f9e a5bd 4ad3 323d cdb6 c23d
000003c0: 730c 3c3e b1bd f63d c4ad acbd dbd2 5cbd
000003d0: 4dd6 33be a62e 7abd bfe7 223e 8a50 93bd
000003e0: f239 4bbe 77b7 8c3e 9599 d23e 8af4 1fbe
000003f0: 6422 cdbc e1a3 9fbd b917 0a3e e77e a3bd
0.770147 0.25689194 -0.24874161 0.081954904 -0.0044066277 0.031564493 0.30548 -0.070012644
0.64879787 -0.18941075 0.33660677 -0.120159425 0.17214513 -0.0022583061 0.020162525 -0.006414205
-0.01436846 0.10037256 -0.01706307 -0.11477415 -0.07394198 -0.22181658 -0.0016275762 -0.057584245
0.018729452 -0.28217298 -0.31675255 -0.19627813 0.12856111 -0.00061348086 -0.047773175 0.1084065
0.26658186 0.47667244 0.15974085 -0.16118495 0.26667127 0.033319563 0.22619991 0.19651225
0.16495885 -0.077764586 0.49370712 -0.32605985 -0.06103907 0.016551018 -0.06241767 -0.23174833
-0.327458 -0.19332711 0.0494425 0.12244177 0.20717889 0.12978305 -0.1680834 0.062494155
0.18203004 0.13104592 -0.5667124 0.15679598 -0.0004977923 0.12244787 -0.11340734 0.109965555
-0.3889393 0.2670431 0.75140756 0.6837148 -0.22662972 0.4089636 -0.5121198 0.27125868
-0.43033093 -0.088051885 -0.009442969 0.06970687 -0.038231395 0.15237688 -0.21272115 -0.15727386
-0.026391976 0.051940124 0.04981567 -0.09407211 0.09517899 -0.13898568 0.026771076 0.017070444
-0.09344621 -0.33879188 -0.15782407 -0.6214965 -0.271539 -0.75292915 -0.11980147 -0.1906509
0.3455824 0.55465746 0.004450183 -0.07916125 0.1754163 0.051564597 0.25864413 0.13333789
0.24331617 -0.008163189 0.4795373 -0.37375182 -0.13979171 0.16333579 -0.15919535 -0.24220942
-0.39750525 -0.22421715 0.16222948 0.13787675 0.3304653 0.14892818 -0.29672706 0.06222353
0.18151833 -0.24342366 -0.580288 0.05039685 -0.028599 -0.07292673 -0.2148523 0.10920379
0.2254075 0.17291717 0.53621286 -0.20041658 0.20501852 -0.28454673 -0.12114034 -0.13009803
0.38554287 -0.10394328 0.36990705 -0.21209253 0.20927826 -0.34082878 0.27574068 0.1813634
0.11234238 0.06715593 -0.2736851 0.016760256 -0.21237278 -0.22585735 0.22519231 0.053280722
0.20115225 1.2303668 -0.32856932 0.13332622 0.3921692 0.61571705 0.19320741 0.11266622
0.46659297 0.48521164 0.26506925 -0.046554994 0.0897472 0.08678032 0.3165198 0.15806349
0.46395102 -0.20759515 0.45562246 -0.20609951 0.08937385 0.053628135 -0.025082529 -0.112962484
0.014156986 0.1267834 -0.06951101 -0.16517344 0.005861608 -0.32853478 0.092413366 0.2988278
0.35946128 -0.28165022 -0.39450067 -0.076904885 0.06446113 0.030669268 -0.051611047 -0.052280013
0.38269818 0.041100603 -0.09133356 -0.53266126 0.24017386 -0.19932833 0.58176315 0.2698975
0.4167699 0.07973077 0.27698433 -0.058501717 -0.10329249 -0.10113998 0.0155244805 -0.28243294
0.07522515 0.04453645 -0.11299409 0.017680954 0.021300409 0.05190915 0.0035745415 0.32540968
0.304052 -0.26481393 0.088319495 0.46837524 -0.03228562 0.3981407 -0.046134453 -0.012112331
-0.38215733 -0.355506 0.18061045 0.23235486 -0.12831426 -0.0031043494 -0.39103767 -0.012659931
-0.30663183 0.115223944 -0.32178184 0.26192427 0.062102076 -0.080868 0.043658532 0.09507523
0.18364124 0.120478995 -0.08431581 -0.053912025 -0.17562218 -0.061079644 0.15908717 -0.07193096
-0.19846323 0.27483723 0.411328 -0.15620628 -0.025040813 -0.07794929 0.13485612 -0.07983189

context_transformer_0/kq_shared_bottleneck/norm/mul;context_transformer_0/kq_shared_bottleneck/norm/add;context_transformer_0/attention/query/einsum/Einsum;context_transformer_0/attention/query/add;context_transformer_0/attention/value/einsum/Einsum;context_transformer_0/attention/query/add/ReadVariableOp/resource;context_transformer_0/attention/Mul;context_transformer_0/attention/Mul/y f4 [32]
00000000: efe7 f9bc ca33 4abe fe73 113c 3a86 82be
00000010: 74db 893d fdb3 6fbd 356a 87bd c6db 233e
00000020: eef9 3cbe 9e6e 163e 50b4 4c3e e3e9 643d
00000030: fdd1 70bd 7edc 35be d63e 0d3e ee4f 4fbe
00000040: 5ac4 c23c f02b b43d 4ad0 1e3e a5ff 083e
00000050: 0866 cebd be97 74bd df40 fd3c 6478 033e
00000060: ace1 76be e20c d43d 8fc7 40be 4928 5e3e
00000070: 3ff5 003e 38e2 7d3e 0056 ab3d adeb 563e
-0.030506102 -0.19746318 0.008877752 -0.25493032 0.067313105 -0.05852126 -0.06612054 0.16001806
-0.18454716 0.14690635 0.19990659 0.055887114 -0.05879401 -0.17759892 0.13793501 -0.20245335
0.023775268 0.08797443 0.15509143 0.1337877 -0.10078055 -0.059715025 0.030914722 0.12838894
-0.24109524 0.1035402 -0.18826126 0.21695055 0.12593554 0.24793327 0.083660126 0.2098834

context_transformer_0/kq_shared_bottleneck/norm/mul;context_transformer_0/kq_shared_bottleneck/norm/add;context_transformer_0/attention/query/einsum/Einsum;context_transformer_0/attention/query/add;context_transformer_0/attention/value/einsum/Einsum;context_transformer_0/attention/query/add/ReadVariableOp/resource;context_transformer_0/attention/Mul;context_transformer_0/attention/Mul/y1 f4 [32, 32]
00000000: e182 863d 2e2f b7bc f23f 5ebc 7501 e93c
00000010: 1cad 39be 056b 543d d35a 923b c701 10be
00000020: f5bb c2bc beeb c2bc fed5 10be 316a b53c
00000030: 4d85 ccbd 9527 e03d c3df 6b3c 259a 1e3e
00000040: 0836 04bd 5f6c 543b 584d cc3c 0ebe 4abd
00000050: 326e 5f3d ecc0 52bd e3c6 48bc dca6 85bd
00000060: 587d 5cbd 8ff3 133e 0094 c93c c8d3 7bbd
00000070: ceba 1b3d 13f3 613e e70f acbd 23ff 8fbb
00000080: 8489 bc3d 9b36 9ebc 316b a53b 4fd1 52bb
00000090: d91c 9bbd 5e4e a63b a4eb c2bc 1fcb 4dbd
000000a0: a4c1 173d 95c4 4abd 652f 453d 8974 6a3d
000000b0: a832 a0bd 51cd cf3c c593 f53d 1de9 c33d
000000c0: 2cda d13d bb48 0b3e 4bf5 e3bd e422 a5bd
000000d0: 2e15 903c 31f4 1fbd 1a03 053e 7b49 af3d
000000e0: 84f0 3e3c 86d2 4b3d 0138 dd3d ba92 073d
000000f0: 4d79 98bb 8d74 2d3e 7f65 0bbd f0c8 00be
00000100: 1a7d e9bd aa72 3b3d 5df8 0b3e a0e9 203e
00000110: 9f40 96bd 367a 543d 2c37 3fbe 6056 853d
00000120: 01f6 45bd 646f 36bd fa6e bf3d df99 1c3d
00000130: 100d e6bd a04d 01bb 5917 d03d 80e1 06be
00000140: 801c 62bc 0eb4 473d 1eb2 23be 8f90 a0bd
00000150: 05b8 7c3d e700 0bbe 6bbb 823d 57de 293d
00000160: 0ff6 013d f884 9c3c 1ec6 453d 6fbb 9cbe
00000170: 826c 9e3a 5587 d4be bb20 67bd cd15 7abd
00000180: 76d0 963d 2935 28bd fd65 9dbd ea43 843c
00000190: 464f 21be 8792 df3c ae59 d0bc e140 c3bd
000001a0: 3616 8d3d 1501 a3bd ead2 3e3d 24b2 b03d
000001b0: 9da9 08be dc80 d43d 2557 073e 5cd6 fc3d
000001c0: c76d c73d fb97 fe3d 0e7d e3bd b002 aebd
000001d0: d7f7 993d 62fa 8cbd bc98 c83d f5b0 c23d
000001e0: 5538 4f3d 9358 a73b 6e56 013e f136 d8bc
000001f0: a9af 4b3d 7ee1 043e f242 b2bd 2aea 05be
00000200: 9837 363e 6e63 f03d 01c7 9a3e 1d71 e9bc
00000210: 15d0 8b3d 67ca 26bd a689 9b3c 0257 c0bc
00000220: 4665 bb3c 4232 803c 7a8c 6dbd decb 5bbd
00000230: 87e8 463e 20f3 18be 5ba3 8f3c 7152 043e
00000240: 47bc 64bb 32d1 873d 9944 9f3c b795 a03b
00000250: a547 2dbe b1f3 1d3b 36e0 913d 4d9b d0bd
00000260: ebc1 e9bd 7367 6c3e 8672 c9bd 96ed 143e
00000270: 0ce9 b9bd 43c2 a83e a52c ee3d ac77 cd3c
00000280: cf26 a2bc aa9b c53a 41eb 293e fa25 9c3c
00000290: 5e99 08be ebe0 3f3c 730d f6b9 8bf6 8ebd
000002a0: 2780 a3bd 08e6 243b 93de d6bd 937b d13c
000002b0: def6 e4bd 6af7 d43d 7a02 743d 1669 053e
000002c0: c425 55bb 4bfe 6a3d 2794 8cbd d5bb a3bd
000002d0: fcc7 673d 91ad c5bd 6313 c93d 8a30 d33d
000002e0: f00c b03d beb8 063e 980c 0c3d 7a12 18bd
000002f0: 16e6 a8bc 970a 703e 3a69 9dbd 1a2f c0bd
00000300: 7324 a0bd 6252 c1bd ce84 943a cca0 c6bd
00000310: 0860 2e3b be29 5abd ad5a 913d 8777 a93c
00000320: 48c0 f5bd d595 dc3d 8186 c1bd 027f 003d
00000330: 2d24 b1bd bbe8 b83d eab1 46bd a786 813d
00000340: f32e 6a3d 6560 6d3c ffaf 3d3d 086f 1f3c
00000350: 5d7a af3c bc0e 713d e673 653d 8aa5 2e3e
00000360: 7bfe bd3d 2f6b 9b3b 8b59 d33d 4196 413e
00000370: 4c22 20bd 93d2 bc3e a295 3bbd 22c8 24bd
00000380: 83b3 2abd 2828 f23c c271 9d3d 3bcc df3c
00000390: 298b df3d ef91 c3bc c4bc d7bc 107a c73d
000003a0: c536 3bbd 7309 1e3d db45 7d3c c815 f1bc
000003b0: d292 dc3d eba4 e5bd e1aa 28bd 0502 01be
000003c0: 2f97 70bd c3ed 8fbd e9f0 583d b0e3 5e3d
000003d0: 7351 37bd 7e46 aa3c 50ff 3fbd d539 adbd
000003e0: f025 3dbd edfa 0dbc 06fd 75bd c7c1 32bd
000003f0: 380b d5bc 9ca3 50be 049c a53d 2af5 a43d
0.06567932 -0.022361364 -0.01356505 0.028443078 -0.18132442 0.051859874 0.0044663935 -0.14063178
-0.023771266 -0.023794051 -0.14144132 0.022145363 -0.099863626 0.1094505 0.014396611 0.15488489
-0.03227809 0.0032413227 0.024939224 -0.049497657 0.05454845 -0.051453516 -0.01225445 -0.065259665
-0.053830475 0.14448379 0.024606705 -0.061481267 0.038019948 0.22065382 -0.08401471 -0.0043944283
0.092059165 -0.019313147 0.0050481786 -0.0032168215 -0.07573862 0.00507526 -0.023794003 -0.05024254
0.037049904 -0.04950388 0.048140902 0.057240043 -0.07822162 0.025366457 0.119910754 0.09565947
0.10246691 0.13601963 -0.1113077 -0.080632955 0.017588224 -0.03905124 0.12989464 0.08558937
0.011654023 0.049761318 0.108016975 0.033098914 -0.004653132 0.16938992 -0.03403234 -0.12576652
-0.11400814 0.04576365 0.13668962 0.15714121 -0.07336544 0.051874362 -0.1867339 0.06510615
-0.04833031 -0.044539824 0.09347339 0.03823268 -0.1123296 -0.0019730106 0.10160703 -0.13171959
-0.01380074 0.048755698 -0.15985915 -0.07840072 0.061698932 -0.13574563 0.063834034 0.041471805
0.0317288 0.019106373 0.048284642 -0.3061175 0.0012086781 -0.415095 -0.0564277 -0.061055947
0.073639795 -0.041066322 -0.07685468 0.016145665 -0.15752897 0.02729155 -0.025433388 -0.09533859
0.06889002 -0.07959191 0.046587862 0.08627728 -0.13345952 0.103761405 0.13216837 0.12345573
0.09737735 0.12431332 -0.11107837 -0.08496606 0.07517975 -0.06883694 0.09794757 0.09506408
0.05059083 0.0051069944 0.12630627 -0.026393386 0.04972807 0.12976643 -0.08704175 -0.13077608
0.17794645 0.11737715 0.30229953 -0.02849632 0.06826798 -0.04072037 0.018986534 -0.023478989
0.02287544 0.015648965 -0.057995297 -0.05366122 0.1942464 -0.14936495 0.017533949 0.12922074
-0.003490226 0.06631698 0.01944189 0.00490066 -0.16921861 0.002410155 0.07122843 -0.10185871
-0.1141394 0.23086338 -0.09836297 0.14543757 -0.09077653 0.3296071 0.11629609 0.025081478
-0.019793896 0.0015076299 0.16593648 0.019061077 -0.13339755 0.0117113395 -0.00046930797 -0.06980618
-0.079834275 0.0025161523 -0.104916714 0.02557162 -0.11179899 0.10398753 0.059572674 0.13028368
-0.003252373 0.05737142 -0.06864195 -0.079948105 0.056587204 -0.09652246 0.09818151 0.103119925
0.08596218 0.13156411 0.034191698 -0.037126996 -0.020617526 0.2344154 -0.07686086 -0.09383984
-0.07819452 -0.094395414 0.0011331083 -0.09698638 0.0026607532 -0.053262465 0.07097373 0.020686878
-0.11999565 0.10770766 -0.09449483 0.031371124 -0.08649478 0.09028765 -0.048509516 0.06324511
0.05717368 0.014488314 0.04631042 0.009731062 0.021420652 0.058851942 0.056018732 0.17055336
0.09277054 0.004743002 0.10319813 0.18904974 -0.039095208 0.36879405 -0.045796998 -0.040229924
-0.041675102 0.029560164 0.07687713 0.027319064 0.109152146 -0.023873297 -0.026335128 0.097400784
-0.04570653 0.03858323 0.015458549 -0.029429331 0.10770191 -0.11213096 -0.041178588 -0.12598427
-0.05873793 -0.07027771 0.052964125 0.05441636 -0.04475541 0.020785566 -0.046874344 -0.08458296
-0.04617876 -0.008665782 -0.060055755 -0.04364183 -0.026006326 -0.20374912 0.08086398 0.08054574

context_transformer_0/ffn_layer_0/intermediate_dense/einsum/Einsum;context_transformer_0/ffn_layer_0/intermediate_dense/Relu;context_transformer_0/ffn_layer_0/intermediate_dense/add f4 [32]
00000000: 4665 d3be 94b2 aabe 926d 73be 3a0f 1ebe
00000010: 43cf 95bd a865 36bd 3433 05be 3dc8 3dbe
00000020: fc82 37be b80d bfbe 33f8 a3bd 45be edbe
00000030: d317 8ebe 2d03 2bbd 65a2 8bbe f282 a0be
00000040: 457c bbbd 27b6 d0be bb83 0bbe 1f5a c3bd
00000050: 77af 60be 71a1 c8be 0e22 9ebe 678d 64bd
00000060: 6c75 2abe dc4b 0abe 679f 7bbe ad42 7cbe
00000070: 2031 6bbd 1412 a2bd 8ace 34be bf9f d3be
-0.41288203 -0.3333937 -0.23772267 -0.15435496 -0.07314923 -0.04453054 -0.13007814 -0.18533416
-0.1792106 -0.37315154 -0.080063246 -0.46434227 -0.2775255 -0.041751076 -0.27272335 -0.31349903
-0.09154562 -0.4076397 -0.1362447 -0.095386736 -0.21941935 -0.3918567 -0.30885357 -0.055798914
-0.16646355 -0.135055 -0.24572526 -0.2463481 -0.057419896 -0.079136044 -0.17656913 -0.41332814

context_transformer_0/attention/norm/mul;context_transformer_0/attention/norm/add;context_transformer_0/ffn_layer_0/intermediate_dense/einsum/Einsum;context_transformer_0/ffn_layer_0/intermediate_dense/Relu;context_transformer_0/ffn_layer_0/intermediate_dense/add f4 [32, 32]
00000000: 4b01 a8be 71cd 043e c7f2 b43d 9875 a03c
00000010: 6005 b6bd 6f35 2abd 43d9 eaba f720 bf3d
00000020: 1dac 743e 1f35 59be 9118 3e3e 6947 efbc
00000030: b7d9 79be 5c2c a6bd f9fe 58be 1e6d 4fbd
00000040: 5a0e 883d 450d a13a 893b c9be 87fd 93be
00000050: bcc5 8a3d 925d b23e 604d 4b3e a986 babd
00000060: 6e3b 4cbe 0ae5 c43d ae47 353d 2ed0 da3c
00000070: aa5c 64be 0e31 cd3d efc4 3bbc fba7 bbbc
00000080: 3b72 16be 24c0 2e3e d78e 5abc 366b 7d3d
00000090: 1fe8 223e 6b7e 58be 14b3 2dbe 8a5c 14ba
000000a0: ec71 c1be 1510 1dbe b7c5 99bd 747b 08bc
000000b0: 32ac 4b3e 60fc 41be 0c3e 5fbe a9cc 2b3d
000000c0: 9767 9f3e 3420 2e3d dedd 783e b231 bcbd
000000d0: 7e43 7cbd e099 efbd e5e5 8b3e a00e 8d3e
000000e0: d509 323e a855 973d 26a3 cf3d 05e0 fd3d
000000f0: 2c25 71be 4351 5c3e 6cf5 7bbd 9193 713d
00000100: bd97 4dbd 06cd 36bd b7d0 07be 466c 3a3d
00000110: d6f1 54be bf38 073e 58a4 9f3d c7ff 7dbe
00000120: b43a b2bd a4e9 55bd 8586 6c39 c3f1 04be
00000130: 359a 163e d68b 2d3d 5436 d13e f1c2 513d
00000140: 78fc 1fbc e668 1f3d a86a dabe 630a a33c
00000150: c63c acbe ceca e8bc ff0f 1fbe 4456 273e
00000160: 935c 3a3d feec 81be 078e 59be a030 b33d
00000170: 7b5f a43e 63cd a73e 3983 1fbd ace9 42be
00000180: 6b65 49bd 1b86 a23d 479b bbbe 9fff 1cbe
00000190: cb8e 1b3e d7d5 e3be 2578 a93d acfe 233d
000001a0: b5cf a2be 0343 813e 36d7 cc3d d14b a93c
000001b0: 3fa5 343c 6deb 12bf b132 fe3d 83c9 b1be
000001c0: e7bf 0dbe f650 f2bd 1206 8abe 260a 323d
000001d0: 8197 103e fc89 8c3e 38b2 07bf 7d74 593e
000001e0: 283a 17bc 688f 80be 96d1 323d e7af 0fbe
000001f0: 23e4 283e 4db0 09bd cdd2 09be e74e 1d3e
00000200: 65ff 49be f56f 2e3e 09fc c3bd 2c3e c73d
00000210: 58b8 2dbe 14ad adbe dfd8 dfbd 376c 89bb
00000220: 60d9 943c f80b dbbe 4c8f 3f3e 1c18 30bd
00000230: 08ca 6ebe f93e cf3c a338 02bd f39b 92be
00000240: 7410 4e3d df74 16bd b58a 333e d312 4e3e
00000250: 1910 683e 4b24 0cbe fb1f 6c3e 54e4 c23d
00000260: ad39 80be b693 323e bc78 993e fef6 23be
00000270: b105 81be 7d19 ffbc d2bc 04be 2c1c 403d
00000280: f12f 8fbd f5a1 06bd bf1f 98be f65e 9c3b
00000290: 1e70 853e f016 d3bd 445f 2f3e dd2f 0f3e
000002a0: d1aa 72be 0c36 d33d ed98 b93e 4287 813d
000002b0: d0e0 38b9 e202 6f3e 5a2d 01be f6bc 65be
000002c0: d002 2c3e d921 ecbb ac2d c03d 7aec c1bc
000002d0: 7242 22bd 9958 1e3d 9237 1d3e 59c7 5bbe
000002e0: cbc4 a23d 093e 05bd 93b8 113e a2fd 4f3e
000002f0: e490 543e 97ff 09bd c351 9b3c 8251 3b3d
00000300: b697 6cbb 4620 853c 66fa d0bc ecbd 68bc
00000310: 608f 40bd 382c 23bc aa2f 0abc a103 313c
00000320: ee93 fa3c 7768 1b3b 816c 383c 2a29 c83c
00000330: 5b53 0f3d c802 cbbc 751f 90bb 1648 9abc
00000340: 19dd aeb9 e000 f03c 044c 8e3c 63fa 09bd
00000350: 89fe 8b3a 4435 7d3b 8791 0f3d fdaa 91bc
00000360: c188 173d 3735 febc 7222 d3ba c0b9 c73b
00000370: 1773 fc3c d60d 82ba 2c3b ed3b 8e39 803c
00000380: 205a 26be 8bf8 d83e e659 6fbe a55d 38bd
00000390: 5a98 073e a8c2 94bd 43cb 923e c70b 573e
000003a0: 3147 f7bc 0771 433d cdee 06bf 9af9 c8bd
000003b0: 247b 003d b8bb ffbd d78e 63be 5577 f9bd
000003c0: 620e eb3e 1b04 97bd da8d cabd f433 3dbe
000003d0: de7f bb3c c378 79bb cd56 b1bb ae4b d53d
000003e0: 3c3a 953e f83c 2a3d ed31 593e 0735 a33d
000003f0: d621 05bc 63a3 d33e f016 8bbd 6974 023f
-0.32813486 0.12968995 0.088353686 0.019587323 -0.08887744 -0.041554864 -0.0017917532 0.093324594
0.23893781 -0.2121167 0.18564059 -0.029208856 -0.24399458 -0.0811393 -0.21191014 -0.05064117
0.06643362 0.001228728 -0.39303234 -0.28904364 0.06775996 0.34837013 0.19853735 -0.09107716
-0.19944546 0.09613998 0.044257812 0.026710596 -0.22300974 0.10019122 -0.011460527 -0.022907248
-0.14692013 0.17065483 -0.01333972 0.061869822 0.1590886 -0.21141975 -0.16962844 -0.00056595413
-0.37782228 -0.15338166 -0.07508414 -0.008330215 0.19889906 -0.1894393 -0.21801013 0.041943226
0.3113372 0.04251118 0.24303386 -0.09189166 -0.061587803 -0.11699271 0.27323833 0.2755022
0.17386563 0.073893845 0.1013854 0.12396244 -0.23549336 0.21515374 -0.06151335 0.05897862
-0.050193537 -0.04462912 -0.13263212 0.045513414 -0.20795378 0.1320524 0.07795018 -0.24804603
-0.08702603 -0.05222477 0.00022556826 -0.1298285 0.14707263 0.042369686 0.40861762 0.0512113
-0.009764783 0.0389184 -0.42659497 0.019902414 -0.33640116 -0.028417017 -0.15533446 0.16341501
0.045498442 -0.25376123 -0.21245585 0.08749509 0.32104096 0.32773885 -0.038943503 -0.19034451
-0.049168985 0.07935735 -0.36641905 -0.15331887 0.1519119 -0.44499084 0.08274869 0.040037796
-0.31799093 0.25246438 0.10001986 0.020666035 0.011025726 -0.5739048 0.12412012 -0.34724054
-0.13842736 -0.11831848 -0.26957756 0.04346671 0.14120294 0.27449024 -0.53006315 0.21235843
-0.009230174 -0.2510941 0.043656908 -0.14031945 0.16493277 -0.0336154 -0.1345932 0.1536213
-0.19726332 0.17034896 -0.09569556 0.09728655 -0.16964853 -0.3392111 -0.10930037 -0.0041938084
0.018170059 -0.4278257 0.18707007 -0.042991742 -0.23319256 0.025298582 -0.031792294 -0.28634605
0.05030866 -0.03673255 0.17533381 0.20124368 0.22662391 -0.1368572 0.23059075 0.095162064
-0.25044003 0.1743916 0.29974926 -0.16012189 -0.25199655 -0.031140083 -0.12962654 0.046901867
-0.06991566 -0.032869298 -0.2971172 0.0047720624 0.260621 -0.10307109 0.17126185 0.13983102
-0.23697974 0.10313043 0.36249486 0.063246265 -0.00017631357 0.23340943 -0.12614956 -0.22435364
0.16797948 -0.0072061834 0.09383711 -0.023672331 -0.03961415 0.038658712 0.1535323 -0.21462764
0.079476915 -0.032529864 0.14230566 0.20311597 0.20758396 -0.033691015 0.018959885 0.04573203
-0.003610117 0.01625074 -0.025510024 -0.014205437 -0.047011733 -0.009959273 -0.008434216 0.010804088
0.030588116 0.002371339 0.011256338 0.024433691 0.034991603 -0.0247816 -0.004398281 -0.018833201
-0.00033352597 0.029297292 0.017370231 -0.033686053 0.0010680716 0.0038636485 0.035050895 -0.017781729
0.036995653 -0.031031234 -0.0016108288 0.006095141 0.030816598 -0.0009922336 0.00723972 0.015652444
-0.16245317 0.42377123 -0.23374137 -0.04501118 0.13241711 -0.0726369 0.286707 0.21000586
-0.030185314 0.047715213 -0.5270813 -0.09813233 0.031367436 -0.124869764 -0.22222458 -0.12180964
0.4590941 -0.0737383 -0.09890337 -0.1847685 0.02288812 -0.0038066364 -0.005411959 0.104148254
0.29145992 0.04156205 0.21210451 0.079690985 -0.008125743 0.41335592 -0.06791484 0.5095888

context_transformer_0/ffn_layer_1/intermediate_dense/einsum/Einsum;context_transformer_0/ffn_layer_1/intermediate_dense/Relu;context_transformer_0/ffn_layer_1/intermediate_dense/add f4 [32]
00000000: 7a27 b9be c08b 3cbc dafe 54be c3a5 e1bd
00000010: 6c46 50be f530 80be 77c0 96be c938 52be
00000020: 3a79 86be 9daf 5fbe dec5 a6be b915 95be
00000030: ebc0 1cbe e1c6 5bbe f73c a2be 882c 2ebe
00000040: 6d89 98be cd2d 2ebe 6901 21be ac8a 2fbd
00000050: ff9f fabd 17ff 3bbe aca6 11be 440a fcbd
00000060: f1ee 9abe 96e6 f3bd 97a1 adbd c157 a1be
00000070: 2ab8 72bd d5fa 52be c1ef 25be 85ad fabd
-0.3616293 -0.011507928 -0.20800343 -0.11017945 -0.20339364 -0.2503735 -0.29443714 -0.20529474
-0.26264364 -0.21844335 -0.32572836 -0.29118136 -0.15307967 -0.21462585 -0.31687137 -0.17009175
-0.29792348 -0.17009659 -0.15723194 -0.042856857 -0.12237548 -0.18359028 -0.14223737 -0.123066455
-0.30260423 -0.11909215 -0.084780864 -0.31512263 -0.059257664 -0.20603497 -0.1620474 -0.122401275

context_transformer_0/ffn_layer_0/norm/mul;context_transformer_0/ffn_layer_0/norm/add;context_transformer_0/ffn_layer_1/intermediate_dense/einsum/Einsum;context_transformer_0/ffn_layer_1/intermediate_dense/Relu;context_transformer_0/ffn_layer_1/intermediate_dense/add f4 [32, 32]
00000000: 4d46 fc3c dadd 82bd 47d1 f0bd 6ded 0fbe
00000010: 3f82 28bd 49f0 95bc 61d5 9c3d a756 84bd
00000020: dd5d e03d f7b9 5c3d de70 dabe b7c7 ad3d
00000030: 0994 a0bd cc4f 0c3e 5586 0e3e 5cb0 0b3d
00000040: 3651 dd3d bbb0 ed3d e2db 97be 8f49 cdbd
00000050: b7a8 50bb 1df4 d53d 0b3c 133e 4a9d 523e
00000060: 6859 793e 551d 453e bd37 5c3e 3cf8 02be
00000070: f8e9 293d 1da6 c3bd e15d 4f3d 843f ad3d
00000080: af65 273e 690b aebe 90f4 86be ee26 45bd
00000090: 55d5 853e a282 883b 00a8 b73d df42 d33e
000000a0: 8b0c 963e d7df 66be 93ff cc3d 411e f93e
000000b0: ba6d 16be c642 c03d 7116 d93d 0b35 61bd
000000c0: 14c3 e7bb 82fb 193e aca4 38bd ff8e cdbd
000000d0: 4a30 2fbe f713 e83e 13bc edbb cde0 3f3e
000000e0: 9231 d3bc 5855 9dbc 058c f9bd 2f65 ddbd
000000f0: 6f58 67bd e553 21bd f557 d0bc faf2 edbd
00000100: 5b8b 573c 4d85 3a3d 9398 a6bd acb2 47bd
00000110: ab77 4b3e 186a 3bbe afd1 c8bd 5979 513e
00000120: 2c63 49bc e76b 623e 6eb2 e3be 0b18 853e
00000130: c886 0dbe 7f2e ac3e 9edb 3bbb 4893 babd
00000140: bbcf 0cbe 3fb2 fabc 502a a2be 68cd 633d
00000150: 6ceb 653c 5340 1a3e e09c 1e3e 8a1e d3bd
00000160: 45ae 96bd 2cde 0dbc ac4d 5f3e a59e 593e
00000170: 53d0 aa3c 7445 6b3e d1e8 a1bd bc02 d63d
00000180: d989 a63d 823d bcbd 5ff5 47bd 4be3 29bd
00000190: 7142 2fbd 5708 413e d674 2f3e f760 803c
000001a0: a97c 953d e15d c1bd 45a2 483e d55b 6a3d
000001b0: e91c 1e3e d8eb ab3b 4abf d43d e455 e2bc
000001c0: 0574 373e f83c 353e 72a1 70bd ec0a 8fbd
000001d0: bc5d dd3d 9d70 263d 58b0 813d 75a3 31bd
000001e0: cb9e de3c 7bfb 35be 0fe5 15bd a21a 0abe
000001f0: a476 89ba 6c79 edbd 0453 b0bc c8e9 133d
00000200: 9649 1e3e 0e4c 843d ad75 95bd 9edd 9d3c
00000210: 6ceb c33d d8f8 ccbe e213 25be 6e6c 523d
00000220: 85f8 2c3e d282 9f3e 4aec 19be d51b 4a3e
00000230: 28e9 bebe 9f46 f7bc bc16 02be 4c45 bfbe
00000240: 7a06 a33d e7c4 813e b0eb 1dbe bc26 a33d
00000250: 874b d6bd c82f f73d 8c8b 3d3e 34c4 0d3e
00000260: 3086 6f3d c72c 8e3e 2926 ad3d 19c8 8abc
00000270: f1f0 84bd 66cd da3d 5b92 0dbd 147d 20bd
00000280: 7a41 6d3d fa14 cf3d 9950 803e 2f94 36be
00000290: cea6 333d 8a96 85be 72c7 913d b14e a93e
000002a0: 395c 06be f801 a5bd 7da4 a1bd c72f 053f
000002b0: 8a3c 033e a324 61be b792 6bbd bbfd 57b8
000002c0: 02e1 b13d 8c72 9a3d b792 d63e 810f 57be
000002d0: 249b 553e a654 5dbe 4e18 52bd 9f2c 473e
000002e0: 4bc9 2c3d 0310 cb3c ae96 313e 1f88 5bbd
000002f0: 857a 023d a9fc 66bc 9024 a33e 6660 663d
00000300: 8661 09be 3b7c 623e 276c 13be feab 65be
00000310: 8a3e b93d 4ff2 103c 2419 513e 766c adbc
00000320: d991 d6bd 848f 1b3d a5cf bebe 7f3c c33d
00000330: a1f0 023d de95 e93c 8ff0 ecbd ffbd 73bd
00000340: 7867 a33e e9f5 2fbe a3f8 12be 22b9 3fbe
00000350: 5386 393e 2f4a 2e3e d153 89be f352 88bd
00000360: 594a eb3e 1a91 c9bd e304 d63d 5bec be3c
00000370: 72d1 713e c0db 103e 9b03 293e 6efe a73d
00000380: f7c9 1bbd b8b9 01be bb20 8e3c fd0f 84be
00000390: 9b37 ea3d aa0a 4c3d 57fa dcbd fbb5 4e3e
000003a0: 670a e5bd 5500 98be d2e6 a2be c912 46bb
000003b0: ce94 b0be 7bd6 4d3e 0151 053e 3339 acbd
000003c0: fa9b 043e c4ec 23be 43d2 a6bd 4829 123e
000003d0: e775 5b3e 2a00 6fbe 3369 713d 2fe0 48be
000003e0: 260e 0abe 7b60 283d 2308 94be 8feb 4cbe
000003f0: 74e7 203d 0edd 7a3d fa56 53be 5592 aabd
0.03079524 -0.06389971 -0.117586665 -0.14055414 -0.041139837 -0.018303053 0.07657886 -0.0646184
0.10955403 0.053888287 -0.42664236 0.08485358 -0.078407355 0.13702315 0.13918431 0.034103736
0.108065054 0.11605974 -0.29659945 -0.10023796 -0.0031838843 0.104469515 0.14378373 0.20567814
0.24350512 0.1924947 0.21505637 -0.12790006 0.041482896 -0.09553168 0.05062664 0.0845938
0.16347383 -0.3399308 -0.2635846 -0.04813283 0.26139322 0.0041659633 0.0896759 0.41261956
0.29306445 -0.22546326 0.100096844 0.48655894 -0.14690295 0.09387736 0.105999835 -0.054982226
-0.0070728157 0.15037349 -0.04507892 -0.1003704 -0.17108265 0.45327732 -0.007255086 0.18738098
-0.025780473 -0.019205734 -0.1218491 -0.10810315 -0.05648082 -0.03938665 -0.025432566 -0.1161861
0.0131557835 0.04553728 -0.0813457 -0.04875438 0.19869868 -0.1830219 -0.09805619 0.20456447
-0.012291711 0.22111474 -0.4447207 0.25994906 -0.13820946 0.33629224 -0.0028664838 -0.09110123
-0.13751118 -0.030602572 -0.31672907 0.055615813 0.01403318 0.150636 0.1548953 -0.10308559
-0.07357458 -0.008658927 0.21806973 0.21251924 0.02085129 0.22975713 -0.07905734 0.1044974
0.08131761 -0.09191419 -0.04881799 -0.04147653 -0.042787973 0.18850838 0.17134413 0.015671236
0.07299168 -0.09441734 0.19593151 0.057216484 0.15440716 0.0052466206 0.10388048 -0.027628846
0.17915352 0.17699039 -0.058747716 -0.06984505 0.10808894 0.04063474 0.06332463 -0.043368775
0.027175328 -0.17771713 -0.0365954 -0.13486722 -0.0010487628 -0.11595425 -0.02152396 0.036111623
0.15457758 0.06459819 -0.072978355 0.019270714 0.095663875 -0.40033603 -0.16120866 0.051372938
0.16891678 0.31154495 -0.15031543 0.1973718 -0.3728726 -0.030185042 -0.12703985 -0.37357557
0.0796022 0.25345537 -0.15421939 0.07966372 -0.104636244 0.120696604 0.18510264 0.13844377
0.05847758 0.27768537 0.08454544 -0.016941117 -0.064912684 0.10683708 -0.034563404 -0.039181784
0.05792377 0.10111423 0.2506149 -0.17829965 0.04386025 -0.26091415 0.07118119 0.3306785
-0.13121118 -0.08057016 -0.07892702 0.5202603 0.12816063 -0.21986632 -0.057512965 -5.14963e-05
0.08685495 0.07541379 0.4190881 -0.21002008 0.20859963 -0.21614322 -0.05129271 0.19450615
0.042184155 0.024787908 0.17342636 -0.053596612 0.031855125 -0.014098325 0.31863832 0.056244276
-0.13416108 0.22117703 -0.14396726 -0.22428891 0.090451315 0.008846833 0.20419747 -0.021169882
-0.10477037 0.037978664 -0.37267795 0.09533023 0.031967763 0.028513845 -0.115693204 -0.059507366
0.31914878 -0.17183651 -0.1435266 -0.18722966 0.18117647 0.17020486 -0.2682176 -0.06656446
0.4595516 -0.09842129 0.10450151 0.023306062 0.23615053 0.14146328 0.16505282 0.082028255
-0.038034406 -0.12668502 0.017349591 -0.25793448 0.11436387 0.049814858 -0.10789936 0.20186608
-0.11183625 -0.29687753 -0.31816727 -0.00302236 -0.3448853 0.20101349 0.13019182 -0.084093474
0.12950125 -0.16008288 -0.08145573 0.1427356 0.21431695 -0.23339906 0.058938216 -0.19616769
-0.1348196 0.041107636 -0.28912458 -0.20011733 0.03928323 0.06124597 -0.20638648 -0.08328692

context_transformer_0/ffn_layer_2/intermediate_dense/einsum/Einsum;context_transformer_0/ffn_layer_2/intermediate_dense/Relu;context_transformer_0/ffn_layer_2/intermediate_dense/add f4 [32]
00000000: 05fc d6bc 3cb4 8ebc 7f76 2fbe 1a8d 17bd
00000010: 2094 9b3d c356 72be e7a4 8dbe fd03 76be
00000020: c86c 42be 9656 9abe 899f 16be b2e8 6bbd
00000030: fdab 94be 0e67 9ebe f207 1bbe 65f8 4abe
00000040: cda2 19be c646 89bd 8434 70be 6382 cfbe
00000050: 3c30 dcbd ac55 13bd 6ade 69be 19d6 87bd
00000060: 6cb6 b9bd cbfe 57bd 58f6 19bd 968e aebe
00000070: 876c 1dbe 3f2b 49be e886 97be e23c 2dbe
-0.02624322 -0.017419927 -0.17135046 -0.0369998 0.07596612 -0.2366591 -0.27664873 -0.24024959
-0.18986809 -0.30144185 -0.14709295 -0.057594962 -0.29037467 -0.30938 -0.1513975 -0.19821317
-0.1500351 -0.06702952 -0.23457533 -0.40529165 -0.107513875 -0.035970375 -0.2283875 -0.06632633
-0.09067997 -0.052733224 -0.037588447 -0.3409316 -0.15373431 -0.19645403 -0.29595113 -0.16917756

context_transformer_0/ffn_layer_1/norm/mul;context_transformer_0/ffn_layer_1/norm/add;context_transformer_0/ffn_layer_2/intermediate_dense/einsum/Einsum;context_transformer_0/ffn_layer_2/intermediate_dense/Relu;context_transformer_0/ffn_layer_2/intermediate_dense/add f4 [32, 32]
00000000: b393 a9be 903a 6a3e 7d74 aebd 39e0 d23d
00000010: 3f79 523d de03 7bbe d910 9e3e 6cfb 073e
00000020: 9f9b 123e f4ab c2bd 545a c03d 615e 1a3e
00000030: 17f6 013d 756d 99be 313b e3bd 9c66 2d3e
00000040: e0f3 b8bb 2b12 e7bd b74d 6a3d 4a5c 60bd
00000050: ed3d d43d ea62 edbd 2034 02be 32da 42bd
00000060: aa2e d23e ffe8 02be 3383 c1bd ceb7 bf3d
00000070: adaa c23d 6198 033e 329d 86be f0d6 b53e
00000080: 6383 cc3d 631b 823e f43d 3a3d 40af a7bd
00000090: 2ab9 e9bd 06fa 253e 9da6 d1bd b3e4 09be
000000a0: e075 c0bc 643f 8bbd 30fa 923d 604b 55bc
000000b0: 18ae 5b3b aba1 293e 8d8d b63e 117d b6be
000000c0: 3aa2 ebbc 0bae 44be 1d0d 3f3e 853e eebd
000000d0: 7e26 a2bd 7c0f 4ebd 3561 53be fbe3 1f3e
000000e0: f896 8fbd b1ad e5bc a935 0f3e d22a a3bc
000000f0: ea3d 843d 8d0d 03be ddbc ad3e cd52 43be
00000100: 58e9 26be 463e d3be 0178 5dbe a062 25be
00000110: 6d0f 50be 773b 55bd 28ab 5c3e 26fe 573e
00000120: baef 583e cade 313e 90f7 ae3c 76c1 933e
00000130: 7b33 9d3c 5770 a33e a089 723e 0973 b33d
00000140: d6a6 d53e dc3d 7ebb 9181 8a3c b30b 36bc
00000150: f6c9 103e c471 b8bd ec2e 8cbd b621 6b3e
00000160: 0852 573c 6a86 adbd 8218 64bd 182d 013e
00000170: 6ba6 5abd c2c8 283d a4ea 9d3e 88f3 843d
00000180: 309b 18be baa1 713e 8bf4 a5bb 82f5 3dbe
00000190: 05f9 bd3d ddb3 da3d ccb5 793e e597 babe
000001a0: 151e 253b 6f0a 94be 9f23 573e 629f 0fbd
000001b0: 9f98 5e3e 7ecb 133e e540 953d abda 883d
000001c0: 9e64 883e 853a 0abe 885c fc3d d382 cebd
000001d0: b27d 633e 82d5 a6bd 9d60 25be e6fa 25be
000001e0: 42bb a93d bf1c d4bd 59e4 073e c1e9 36be
000001f0: 3a0a 723d 15f0 0bbe 6b6b 383e 017b 8c3d
00000200: d117 f13b f523 923e 8b3e d5bc 5df0 af3c
00000210: 6fbe b3be 25a1 8f3d 90c9 a2bd 0521 a93b
00000220: a511 21be 3dea 513d cccd 223d fcb9 673e
00000230: 696c bcbd a9d8 4f3e 2670 423e 238d 95bd
00000240: da14 cf3d 919d 763d 7076 6c3d 0160 063e
00000250: 5e27 9fbd aa36 49bb 25ba 353c 3929 8a3e
00000260: 8e43 1ebe 0b18 c0bd 7782 983e 3671 c0bb
00000270: 0761 6dbe 4f1c 013e eeb7 37be 850d dd3d
00000280: c577 9abe 502c ec3d dc61 d6bc 8c63 2ebd
00000290: c96c 073e 3e53 2abd 0d1d 35be a341 c1be
000002a0: 1604 dabd 8121 1ebd 2292 883b febc 733e
000002b0: b98d 1cbd 0eb9 06be d665 2dbd 5b8d c73d
000002c0: e1f6 9e3d 38f4 383e 580d 12be 1734 91bd
000002d0: f57d 6c3d 9dbf a53e 1aa9 3e3d d99e 3bbe
000002e0: f3f4 343c a7b0 b0bd eac3 413e de23 7c3e
000002f0: 5ac2 6bbd 619a 413d 02b5 5b3d 02fa 293e
00000300: a960 65be 18e3 933e f20d 0abe fa37 843d
00000310: 70d3 91be fdcb 70bc 1c30 91bd dba6 a33d
00000320: 5024 713d 9b72 6cbe 89ad 583d 4328 113e
00000330: 5d44 6fbe 3028 cebd ad29 67bd 7dd4 8c3d
00000340: 3dbe 24bc b9ea e63d b946 c8be e17e c4bd
00000350: 3bd4 55bd 7863 8bbe d564 9ebd e7b4 933e
00000360: 0e21 b23d af50 e0ba 1fa4 96be 6d43 cebd
00000370: 8fa1 7f3e 360c a43e 7c30 153e 8ab9 c03e
00000380: 70da c6bb 7a25 1b3d 0eaa c1bc 17e8 c0bd
00000390: ff97 a0bd 16bc a33e 72a5 933e 4994 103e
000003a0: f507 12be 214b 24bc b17c 1bbd 2039 403e
000003b0: 3152 123d 6d3f cc3d db60 bdbc 63a0 1bbe
000003c0: 1a6c e83d c4a2 ff3d b65c 42bd 4558 1abc
000003d0: ee1d 6abd 1b41 39be 238b bbbd 3946 d73d
000003e0: 68c3 e23e 7900 acbd 1ef6 36be 6d42 84bd
000003f0: 7f86 df3e 8846 12be 753f 973e af1b 9bbd
-0.33120498 0.22873902 -0.08518312 0.10296673 0.05138516 -0.24513194 0.3087223 0.13279504
0.14317177 -0.09505454 0.09392229 0.15075065 0.03172883 -0.29966322 -0.11095274 0.16933674
-0.0056443065 -0.11282762 0.05720302 -0.054775514 0.10363374 -0.11591132 -0.12715197 -0.04757137
0.41051227 -0.12784193 -0.094488524 0.0936123 0.0950521 0.12851097 -0.26291806 0.35515547
0.099859975 0.2541152 0.04546924 -0.08187723 -0.1141227 0.16208658 -0.10236857 -0.13466148
-0.023493707 -0.067992 0.07176626 -0.013018459 0.0033520516 0.16565578 0.3565487 -0.35642293
-0.02876388 -0.19207017 0.18657346 -0.116330184 -0.07917498 -0.050307736 -0.2064255 0.15614311
-0.07011217 -0.028036924 0.13985313 -0.01991788 0.06457122 -0.12798138 0.33933154 -0.19074555
-0.16299951 -0.41258448 -0.21627809 -0.16150904 -0.20318384 -0.052058663 0.21549666 0.21093044
0.21185198 0.17370144 0.021358281 0.28858536 0.019189587 0.31921646 0.23685312 0.087621756
0.41728848 -0.0038794195 0.016907485 -0.011111188 0.14139542 -0.09006074 -0.06844887 0.22962078
0.013142116 -0.08472903 -0.055687435 0.12614858 -0.053381365 0.041207083 0.3084308 0.064917624
-0.1490295 0.2359685 -0.005064552 -0.18550685 0.09276012 0.106788374 0.24385756 -0.3644401
0.0025194932 -0.2891421 0.21009682 -0.03506411 0.21737908 0.14433095 0.07287768 0.066823326
0.26639265 -0.13498886 0.123223364 -0.100835465 0.22215918 -0.08146192 -0.16150136 -0.16208991
0.0828767 -0.103570454 0.13270701 -0.17862608 0.059091784 -0.13665803 0.18009727 0.06859399
0.0073575755 0.28543058 -0.0260308 0.021476919 -0.35106227 0.07013158 -0.07948601 0.005161407
-0.15729387 0.051248778 0.039747044 0.22629541 -0.09200365 0.20297493 0.18988094 -0.0730231
0.10111399 0.06020886 0.05773014 0.1312256 -0.077711806 -0.0030702748 0.011091744 0.26984575
-0.15455458 -0.09379586 0.29787037 -0.005872871 -0.23181544 0.12608455 -0.17941257 0.10793594
-0.30169502 0.115318894 -0.02616971 -0.042575404 0.13225092 -0.041583292 -0.17686863 -0.3774539
-0.106453106 -0.03860617 0.004167811 0.23802564 -0.038221095 -0.1315653 -0.042333446 0.09743758
0.07761932 0.18061912 -0.14262903 -0.070900135 0.05773731 0.32372752 0.046547987 -0.18322314
0.011044729 -0.08627444 0.18922392 0.24623057 -0.057558395 0.047266368 0.05363942 0.16599277
-0.22400154 0.28884196 -0.13481882 0.06455989 -0.28481627 -0.014697072 -0.07089254 0.079908095
0.05887252 -0.23090594 0.05289987 0.14175515 -0.23365922 -0.10066259 -0.05643623 0.068764664
-0.010055122 0.112752385 -0.39116457 -0.09594513 -0.052204352 -0.27224326 -0.07734076 0.28848955
0.08697711 -0.0017113889 -0.2942209 -0.10071454 0.24963973 0.32040566 0.14569277 0.37641555
-0.0060685202 0.037877537 -0.023640659 -0.094192676 -0.07841491 0.31979436 0.28837162 0.14119066
-0.14260848 -0.010027678 -0.037960712 0.18771791 0.035722915 0.09973035 -0.023117473 -0.15197901
0.11348744 0.12482217 -0.047451697 -0.009420459 -0.05715745 -0.18091242 -0.091573976 0.10511441
0.44289708 -0.08398528 -0.17867324 -0.06457982 0.436573 -0.14284718 0.295406 -0.075736396

context_transformer_0/ffn_layer_3/intermediate_dense/einsum/Einsum;context_transformer_0/ffn_layer_3/intermediate_dense/Relu;context_transformer_0/ffn_layer_3/intermediate_dense/add f4 [32]
00000000: cf46 92bd 19b6 ccbd 816d d0bd 8d21 3ebe
00000010: 061a c1bd 8fc3 99be 0c21 76bd 74cb 9d3c
00000020: 4cba b1be dce2 9ebb 3f44 dbbd cc90 79bd
00000030: e6bd b8be 3a01 4fbe 6af6 7cbd 9a1b d6be
00000040: b04a 1cbe b865 aebd 8948 dc3d c4d0 d1bd
00000050: fb86 debd 6d97 40be 45b8 debb 6165 0ebd
00000060: 2ada 1bbe 6693 55be c846 dfbd 4c56 22be
00000070: abd6 6c3d 2683 d7bd 7abf ccbe b8c2 9ebe
-0.07142412 -0.0999567 -0.10177136 -0.18567486 -0.09428792 -0.30032012 -0.06009011 0.019262053
-0.34712446 -0.004848821 -0.10706376 -0.060929105 -0.3608238 -0.20215312 -0.061758436 -0.41817933
-0.15262866 -0.08515495 0.107560225 -0.10244897 -0.10865589 -0.18807764 -0.006796869 -0.03476465
-0.15219942 -0.2085701 -0.10902172 -0.15853232 0.05782191 -0.105230615 -0.39989835 -0.31007934
