kasada-tests/userdata/Default/optimization_guide_prediction_model_downloads/0082fed8-e15e-4cb6-a9e6-a7b38161e756/model.tflite (tflite, 67216 bytes, 5 tensors)

dnn/hiddenlayer_1/bias/part_0 f4 [64]
000000 a6 ec 92 bd cc f3 91 3c e9 fe 05 3c e3 00 ae bc
       -0.07174043 0.017816447 0.008178451 -0.021240657
000010 c0 85 03 bd 5c 9a b8 3d 70 0e 54 3c 21 81 8e bb
       -0.032109976 0.09013817 0.012942895 -0.0043488895
000020 f7 a5 0c 3d 05 c1 3e 3d ae 04 99 3d d0 1b 6e 3c
       0.034337964 0.046570797 0.07471596 0.014532998
000030 b4 ce 2e 3d 19 bc 5e bc ea 45 67 bd a5 98 8e 3c
       0.042677596 -0.013594651 -0.05646316 0.017406771
000040 fa 9c 8c 3d 01 6f f1 ba bf 11 ef 3b e5 fe ae bc
       0.068658784 -0.0018419923 0.0072958167 -0.021361778
000050 e7 da 85 bd 53 15 54 bc 1b 2a a2 bd 83 13 72 bc
       -0.06535893 -0.012944537 -0.07918187 -0.01477516
000060 7e 4b 97 bc 14 3f cf bc 0f 95 16 be b2 84 3f bc
       -0.018468615 -0.025298633 -0.14705299 -0.011689352
000070 c4 80 bd 3c e4 12 a0 bc 95 89 f3 3c 8d e7 0d bd
       0.02313269 -0.019540258 0.02972869 -0.034644652
000080 ce d2 59 bc 66 3f ca 3d ca fa 87 bc 51 18 ad 3c
       -0.013294889 0.098753735 -0.016599078 0.021129759
000090 98 54 d2 bc 6a 2f f3 3b fc 2f d1 3d 3c e0 9f 3d
       -0.025675103 0.0074214237 0.102142304 0.07806441
0000a0 c7 96 6f 3d 0e 60 cb bb 50 b9 af 3b 74 aa dd bc
       0.0584934 -0.006206519 0.005362667 -0.027058817
0000b0 0d 63 46 bd 9a 75 af 3d 41 8f 5c bd f2 7d d6 bd
       -0.048434306 0.085673526 -0.053847555 -0.10473241
0000c0 c9 e4 ce bc a9 53 83 bc 69 86 29 bc c7 e9 fb 3c
       -0.025255578 -0.016031103 -0.010346987 0.030751122
0000d0 5b 0d 10 3d 74 60 75 bd 92 c3 7b bc 28 b9 d2 3d
       0.035168987 -0.059906438 -0.015366452 0.10289222
0000e0 90 e9 af bb a0 4b a9 bc d9 e0 ad bc 56 8f 7c bd
       -0.005368419 -0.020665944 -0.02122538 -0.061660133
0000f0 ec b3 6f bc 67 e2 d6 3b d6 07 1a bd 29 6d 8b bc
       -0.014630299 0.006557751 -0.03760513 -0.017019825

dnn/hiddenlayer_0/bias/part_0 f4 [128]
000000 d7 e5 9c 3c 09 6d 14 3d cd 9c ec bc e3 1a 01 3c
       0.019152565 0.036236797 -0.028883362 0.007879945
000010 ca 89 b1 bc b9 f6 5d 3c c8 32 dd bc 53 f9 2d bd
       -0.021672148 0.013547593 -0.027001753 -0.042474102
000020 f5 22 af bd 78 94 41 bd 16 e5 ae 3c 1d 12 35 3d
       -0.085515894 -0.04726073 0.021349471 0.044206727
000030 44 8b d5 bd 24 b7 f7 3c 55 f7 1d 3c 56 d2 36 3c
       -0.104269534 0.030238695 0.009641488 0.011158546
000040 43 0e 17 bd 42 be f9 bd b3 cb 0e 3d 7f 84 e1 3c
       -0.036878835 -0.12194492 0.03486223 0.027529
000050 e0 0f bc bb fd 74 a3 3d 16 30 a3 3b 01 f9 c8 3c
       -0.005739197 0.07981298 0.0049800975 0.024532797
000060 a0 6b b9 bc d0 c7 c1 bb ee e2 31 3c 92 68 55 bd
       -0.022634327 -0.005913712 0.010857327 -0.05210168
000070 e3 2e 71 bd 62 87 26 b8 e3 14 89 bd 37 72 3d 3d
       -0.058882605 -3.970357e-05 -0.06693437 0.046251502
000080 21 c7 1b bc 08 3b 37 bc f0 aa e4 3d 35 e7 f0 bc
       -0.009507925 -0.011183508 0.11165416 -0.029407123
000090 14 46 02 bd 2d a5 c9 bd 6c c2 82 3d 7d cb 8e 3d
       -0.031805113 -0.09845958 0.06384739 0.06972406
0000a0 d9 11 92 bb 36 0c 0f 3d ed 6c f7 bc 3b 9d 0c 3d
       -0.004457694 0.034923755 -0.030203307 0.034329634
0000b0 76 0e 22 3c ab d4 b9 bc f8 0f 2b 3d 0a 71 c7 bc
       0.009891143 -0.022684416 0.041763276 -0.024345893
0000c0 02 5a 2a 3d 80 5a 75 bd f4 07 9c 3d 82 4c fa 3a
       0.041589744 -0.05990076 0.076187044 0.0019096287
0000d0 82 98 89 bd ad b1 18 be 16 2f ab bd 35 16 8f 3d
       -0.06718542 -0.14911528 -0.0835859 0.069866575
0000e0 ba 8e cd 3b 25 8f d2 3d 98 f5 01 3d b5 51 8c 3c
       0.006273118 0.10281209 0.031728357 0.017128805
0000f0 26 42 be bd 38 81 51 3d ef 6b 01 be 53 d0 73 3d
       -0.092899606 0.051148623 -0.1263883 0.059524845
000100 65 93 cc bd 37 49 96 bc fa 48 38 bb 3d ab 11 bd
       -0.09989051 -0.018345458 -0.002811967 -0.035563696
000110 5f 07 c5 3b 00 72 0a 3d a3 6f c2 bc 28 82 39 bd
       0.0060128416 0.033800125 -0.023734873 -0.045290142
000120 6d 8d b5 bb 61 32 9b 3c 67 c9 16 bc ee 8c 94 3d
       -0.005540541 0.018944921 -0.0092032915 0.07253443
000130 ee df 50 3c 7b 0e f1 3c c3 a9 a3 bc 07 80 97 3d
       0.0127487015 0.02942585 -0.01997841 0.07397466
000140 54 b2 73 bd ad 65 35 bd 53 f6 bb 3c 9a 29 44 bc
       -0.05949624 -0.04428642 0.022944605 -0.011972809
000150 ab e0 93 3c 86 bf 2b 3c 27 de 01 3d 12 f1 c0 3d
       0.018051466 0.010482674 0.031706 0.094209805
000160 60 4b 0b bd a1 77 c7 bb ca 99 68 3d 38 6e 20 bd
       -0.03400743 -0.006087259 0.05678729 -0.039167613
000170 76 79 c2 3c 23 d5 05 bc fc 2c bf 3c c5 3f a2 3d
       0.023739558 -0.008168492 0.02333688 0.07922319
000180 80 39 5e bc a3 60 ed 3c 05 4f 5c bd 97 31 bb 3c
       -0.013563514 0.028976744 -0.053786296 0.022850795
000190 20 e7 b7 bc bc 6a f0 bb 7c 13 d6 3c e1 a6 92 3d
       -0.022449076 -0.0073369425 0.026132338 0.07160736
0001a0 27 cd 9e bc fe 30 3a 3c a1 da 01 3d b1 c7 b4 bd
       -0.019384934 0.01136422 0.03170264 -0.088271506
0001b0 17 27 95 bd 63 15 18 3d 88 fe 66 bc 05 c2 3f 3d
       -0.072828464 0.03712977 -0.014098771 0.04681589
0001c0 0a 44 d3 3c b3 13 90 3c 73 ce 82 3d ba 4f 25 bc
       0.02578928 0.017587518 0.06387033 -0.010089809
0001d0 b8 53 03 bd ba 7a 4f 3c 58 d0 1c bd 91 f6 a8 bd
       -0.032062262 0.012663538 -0.03828463 -0.08250154
0001e0 35 a1 7f 3d 5c f6 66 bd 19 34 45 bd e4 cc 09 39
       0.0624096 -0.05638729 -0.048145387 0.00013141666
0001f0 ac 4a cb bc ea 98 87 3d 24 3e a9 bc 3f 84 02 3e
       -0.02481588 0.06620963 -0.020659514 0.1274576

dnn/hiddenlayer_0/MatMul f4 [128, 12]
000000 eb c7 7d 3d d8 a4 43 be 32 77 3e 3e bf 06 57 3d
       0.061958235 -0.19105852 0.18600157 0.052496668
000010 ad a7 29 be 28 ac 49 3e cc 1d 3a 3c 7b 73 a0 bd
       -0.1656787 0.19694579 0.011359643 -0.07834526
000020 a3 50 12 3c 92 3d 71 3e 0b 4d 88 3e ef 42 36 be
       0.008930358 0.23558643 0.2662128 -0.1779897
000030 12 63 1f 3c ca f1 cf bd da 4c 90 bd 64 9c 5f 3d
       0.00972821 -0.101535395 -0.07045908 0.054592505
000040 21 74 fe 3d 75 36 3a bd 57 77 44 3e 25 9d 2d be
       0.124244936 -0.04546209 0.1918615 -0.16954477
000050 82 13 0b bd 07 9a 7a 3e f1 25 70 bd e0 50 dd 3c
       -0.03395415 0.2447282 -0.058629934 0.027016103
000060 ad 46 40 3e b9 c1 2b 3e 40 ee 36 3d f7 86 51 bd
       0.1877696 0.16773118 0.044660807 -0.051154103
000070 4c 34 e6 bd c2 8f 25 3e 95 33 5f 3d bd 0e 1b be
       -0.112404436 0.1616812 0.05449255 -0.15142341
000080 e4 2f 61 be 73 7c 86 3e d7 6b 1d bc 68 0d 88 bd
       -0.21990925 0.26266822 -0.009608231 -0.06643182
000090 86 88 7f bc 71 da 8e 3d 49 1b 13 3e 4b 65 60 be
       -0.015596515 0.06975258 0.14365877 -0.2191364
0000a0 44 24 35 3e d5 67 f6 bd f6 97 b8 3d 6e ea 29 3e
       0.17689615 -0.12031523 0.09013359 0.16593334
0000b0 48 fc be bc 5e 93 59 3d 41 6b 3d be 5c 5e d9 bd
       -0.023313656 0.053119056 -0.18497945 -0.10613701
0000c0 76 75 11 be ed 5d 9a bd 85 c8 7a bd 66 a8 38 be
       -0.14204964 -0.07537446 -0.061226387 -0.18032989
0000d0 38 6b d0 bd 90 dc f2 bd 3b 39 02 be ae d5 58 bd
       -0.101767 -0.11858475 -0.12717144 -0.052938156
0000e0 b2 11 14 3e 7c b0 84 3e 49 c0 48 3d f0 50 0b 3c
       0.14459875 0.25915897 0.049011502 0.008503184
0000f0 c2 03 05 bd c6 09 26 3e e2 c4 4f bd c1 5f 24 3d
       -0.032474287 0.16214666 -0.05072487 0.04013038
000100 63 63 b8 3d f3 08 40 be 55 5a 66 3e e1 a7 9c bd
       0.090033315 -0.18753414 0.22495396 -0.07649208
000110 cb 14 d1 bc dd bf b8 bd 80 c2 2f 3e f5 bc 41 be
       -0.02552261 -0.0902097 0.1716404 -0.18919738
000120 3e 8e 30 3d d5 bc f2 ba 1a 0a e6 3d d3 d5 7b be
       0.043104403 -0.0018519411 0.112323955 -0.24593286
000130 fe 03 64 3e 6d e8 07 3e 7e fb 8f bd 30 27 3f bd
       0.22267148 0.13272257 -0.0703039 -0.04666823
000140 22 11 ad bc 48 b7 33 3e e6 37 1b bd ac 5b 86 bd
       -0.021126334 0.17550385 -0.037895106 -0.06560454
000150 3c 6d 96 bd 53 fa 63 3e 6b 1d 6e be 84 07 68 bc
       -0.073450536 0.2226346 -0.2325341 -0.014161948
000160 f4 cc 62 3e 59 17 05 bc d7 b1 88 bc cb 91 5c 3e
       0.22148496 -0.008123242 -0.016686363 0.2153999
000170 07 8b dc bd 68 23 4c 3e 22 40 2d bc 8c 9f 87 3e
       -0.10768705 0.19935381 -0.0105743725 0.26488912
000180 17 88 e3 3d fc 89 0d 3e 3f 11 97 be 42 ab c9 bd
       0.111099415 0.13822168 -0.29505345 -0.09847118
000190 b9 78 16 3d da 8d 78 3d a8 02 99 3d 92 42 ac 3d
       0.036736224 0.060682155 0.0747121 0.08411135
0001a0 f7 6c 17 3e 8b 5b 26 3e 74 7e 9b 3d fe c0 80 3d
       0.1478766 0.16245858 0.075924784 0.0628681
0001b0 2a 92 3a 3c cb b8 fd bd e7 19 75 bd 64 b1 85 be
       0.011387387 -0.12388762 -0.059839156 -0.261119
0001c0 08 90 03 be 92 2a 51 3e 81 8b 4a 3c 52 e5 e5 bd
       -0.12847912 0.20426396 0.012362362 -0.1122538
0001d0 a9 73 d8 3d 3b ac 1e 3e 8f 91 11 be ce 95 c2 bd
       0.105689354 0.15495388 -0.14215682 -0.09501229
0001e0 fd 3d 55 be cc ee 83 bc 5a d4 a2 3d 17 58 e0 3c
       -0.20824428 -0.016105078 0.07950659 0.027385755
0001f0 5d 90 9a bc 08 49 a8 3d aa 81 2b be e0 a5 24 3e
       -0.018867666 0.082170546 -0.16748682 0.16078901
000200 5a fd 48 bd c8 24 d9 3d 0a 07 4a 3c 41 a2 e4 3d
       -0.04906974 0.106027186 0.01233078 0.1116376
000210 44 d4 95 bd 01 3c 21 bd 02 42 1f be 3a 33 e7 3d
       -0.07315877 -0.039363865 -0.15552524 0.112890676
000220 7a 5c 7a 3e 91 ac 38 3d 85 5d af bd 6e fb f1 bc
       0.2444934 0.045086447 -0.08562759 -0.029538836
000230 92 04 10 3e 44 86 8f 3d 25 d0 34 3e 59 fb 6f 3e
       0.14064243 0.07008031 0.17657526 0.23435725
000240 2f 90 30 3e 49 09 1b bd 5d 32 6d be 5e 40 df 3d
       0.17242502 -0.037850652 -0.23163743 0.10900949
000250 e8 e8 e6 bd 2f 93 cf 3d 0f d1 99 be ac d7 35 bc
       -0.11274892 0.10135495 -0.30042312 -0.011098783
000260 ed 0b 1b 3e d2 fb 26 3e 7a 8f fb 3b 17 f8 16 3e
       0.15141268 0.16307 0.007677016 0.14743076
000270 7b ff ea bd d1 30 a6 bd 85 a3 52 be c4 75 e8 bd
       -0.1147451 -0.0811478 -0.2057019 -0.11350587
000280 ce 94 c9 bd 73 dc 80 bd 2c 20 2e be d9 1a c8 3d
       -0.09842835 -0.06292047 -0.1700446 0.09770746
000290 a2 76 c7 3b 41 99 3f 3e b0 4c 9a 3b 16 2d 91 3e
       0.00608714 0.18710805 0.004708849 0.2835471
0002a0 30 63 df bb bf 85 a5 bd a0 c7 b7 3d 09 6b 8f bc
       -0.006817244 -0.08082151 0.08973622 -0.017507093
0002b0 b8 7f 5b be ef db 08 3e 58 94 99 bc bc 08 3a be
       -0.2143544 0.13365148 -0.018747494 -0.18167394
0002c0 44 0d 93 bb 63 17 91 3d d7 3f 06 3e 3d e9 64 3d
       -0.0044876654 0.07084539 0.1311029 0.055886496
0002d0 fb 03 b5 3c e9 4e fb bd b1 95 16 be ff 82 d9 bb
       0.022096625 -0.1227091 -0.1470554 -0.0066379304
0002e0 b3 a2 ca 3d ee 92 01 3e c8 a2 1a 3e 76 f9 3a bd
       0.09894314 0.12653705 0.15101159 -0.04564806
0002f0 0c 5f 8b be 7d 0f f0 3d c9 a8 6a 3d 7d 5d 3e be
       -0.27220953 0.11721704 0.057289872 -0.1859035
000300 b7 cb 46 be fc d4 14 be eb 76 79 3d 94 3b 8e 3b
       -0.19413649 -0.14534372 0.060904425 0.0043405984
000310 6c 62 f5 3b 24 99 8a 3e 7b 50 70 be 1f 67 ce bd
       0.0074885394 0.27069962 -0.23468201 -0.100782625
000320 47 04 1b 3e a9 66 09 3e 8c f0 be bd d3 80 6f be
       0.1513835 0.13418068 -0.093232244 -0.23388986
000330 a2 2a 47 be ef f5 0b 3e 2b 54 12 be fb e5 1c 3e
       -0.19449857 0.13668035 -0.1428992 0.15322106
000340 91 43 ac bd 34 fb 52 bd 54 ca c2 bb 6d ba 0f bd
       -0.08411325 -0.051509097 -0.0059445295 -0.0350899
000350 db 2f ca bc 51 51 f6 bc ad e7 28 be c3 49 84 bd
       -0.024681022 -0.030068072 -0.16494627 -0.064593814
000360 f6 80 16 3e 8c 4b 51 be 64 07 cb bd 1a da a1 3d
       0.14697632 -0.20438975 -0.09913519 0.07902928
000370 84 ac 48 be 54 bf ce bc 91 2c c7 3d 03 a7 3a be
       -0.1959706 -0.025237717 0.09725297 -0.18227772
000380 92 ff 17 3e 98 af b2 bc 94 51 cf bd eb 76 e4 3d
       0.14843586 -0.021812245 -0.10122982 0.11155494
000390 3c 80 ff 3d 17 da 49 be 25 96 8d 3c f5 9b 48 3d
       0.12475631 -0.19712101 0.017283509 0.048976857
0003a0 00 80 f9 3d 9f 68 5a 3d 5d d7 e2 39 95 7c 2e 3e
       0.12182617 0.05332243 0.00043266537 0.17039712
0003b0 1f 2b be bd bf a1 2c bd d0 a4 2a be 95 51 5d 3e
       -0.092855684 -0.04214644 -0.16664433 0.21613152
0003c0 36 e0 d5 bb 77 b6 d1 bc 44 62 a5 bd 89 eb c7 3d
       -0.006526972 -0.025599701 -0.08075383 0.09761722
0003d0 7b 9f 6a bd 9a 6d 0a 3e f3 24 cb bd da c5 25 be
       -0.057281 0.13518372 -0.09919157 -0.16188756
0003e0 65 47 07 be 9e bf ea bd 63 88 9e 3d 8a 71 ba 3d
       -0.13210829 -0.11462329 0.077408575 0.09103687
0003f0 8f 56 79 be cd f3 6b 3e c8 87 75 3d ea dd 0e 3d
       -0.24349426 0.23042221 0.059943944 0.034879602

dnn/hiddenlayer_1/MatMul f4 [64, 128]
000000 f5 b4 1a 3e d2 67 03 be a8 d6 28 be 79 64 47 3d
       0.15108092 -0.12832573 -0.16488135 0.048679803
000010 3e a6 bf bc f6 f2 23 be a3 a5 f5 ba 75 94 07 bd
       -0.0233947 -0.16010651 -0.001874138 -0.033100564
000020 2a 52 32 bd d3 6c c7 3d 3c d1 a8 3d 77 f5 a2 3c
       -0.04353539 0.097375534 0.08243033 0.019892437
000030 3c 22 bd 3d 3f 48 f5 3d 2c 6c dd bd 9e da 14 3e
       0.09235045 0.119766705 -0.10811648 0.14536521
000040 11 88 46 bd d9 7b 2f bd b1 45 5d bd b3 71 e7 3d
       -0.048469607 -0.04284272 -0.05402154 0.11300983
000050 6e c4 d8 bd d0 48 04 3e 4f a3 0a 3e a0 97 f9 bd
       -0.10584341 0.12918401 0.1353886 -0.12187123
000060 32 0a 57 3e d7 13 ec 3c cb 13 ee 3d 2c b6 4e be
       0.20999983 0.028818054 0.11624869 -0.2018668
000070 2e 07 11 3d 58 7f 4c bd b5 69 2b 3e 6e b7 22 3b
       0.035407238 -0.049926132 0.16739543 0.002482857
000080 6d e4 dd bd 92 6d 11 be 4e e3 04 3e 47 24 1e be
       -0.108345844 -0.14201954 0.12977335 -0.15443526
000090 f3 4c 7d bd 10 4d e6 bd 35 8e de 3c f1 f8 64 be
       -0.061840963 -0.11245167 0.027167419 -0.22360589
0000a0 6c 1e 90 3d d2 22 a9 bd 1b ce 33 3c 81 c6 34 be
       0.070370525 -0.082585946 0.010974432 -0.17653848
0000b0 bb 87 27 be 04 a5 05 3e 51 af db 3c 2d b7 c0 bd
       -0.16360371 0.1305123 0.026816996 -0.09409938
0000c0 27 e2 49 be c3 6b a5 3d 71 95 87 3c 7c 2b 6d bd
       -0.19715177 0.080771945 0.016550751 -0.057902798
0000d0 80 45 70 bb 91 79 2c 3e f9 65 7b 3d 8b 94 08 3e
       -0.003666252 0.16843249 0.061376546 0.13337915
0000e0 80 da 49 be bc e5 a6 bc 37 7b 03 3e 2a dd f9 3d
       -0.19712257 -0.020373218 0.12839971 0.12200387
0000f0 0c fe f6 3d a3 8c d1 bd 66 d6 4b be 53 21 82 3b
       0.12060174 -0.102319025 -0.19906005 0.0039712577
000100 fd 46 5d be 86 6e 8c bd e1 02 53 bd 3d eb bd bc
       -0.21609111 -0.06857018 -0.051516417 -0.02318346
000110 b1 29 7b bd 52 de 36 be 9e 05 8e 3d bd f6 85 bd
       -0.061319057 -0.17858246 0.06934665 -0.06541202
000120 b6 fc 5a 3d d4 85 0b bb f9 29 12 3e bf 01 66 3d
       0.05346366 -0.0021289485 0.14273824 0.05615401
000130 db b3 0e be a7 d4 8f bd 0d a0 10 3e af 04 52 3e
       -0.13935797 -0.07022982 0.14123555 0.20509599
000140 1d a1 8a bd 78 2d c6 bd 70 5a b7 bd 96 0c 1d bd
       -0.06769011 -0.09676641 -0.089527965 -0.03834208
000150 1a 40 1e be 89 71 18 be 06 0c da bd 51 6e eb 3d
       -0.1545414 -0.1488706 -0.106468245 0.114956506
000160 9a b8 73 bc f7 4d 23 3e a0 e4 b8 bd 06 27 27 3e
       -0.014875555 0.1594771 -0.09027982 0.1632348
000170 f4 81 1a 3d 49 4c 29 3c bc 68 17 3c e5 5c f8 bd
       0.03772159 0.010333129 0.009241279 -0.12127093
000180 1a 2e ca 3d d6 a8 e6 3d a8 a7 2a 3d d9 e8 d3 3d
       0.098720744 0.11262672 0.041663796 0.103471465
000190 5f e7 bc bd ed 51 01 bd c7 07 7f 3d 97 54 09 be
       -0.09223818 -0.03157227 0.062263276 -0.13411175
0001a0 87 6e a3 bb 50 51 67 bd c3 d0 eb 3c 5e 20 6f 3d
       -0.004987541 -0.05647403 0.028786069 0.058380477
0001b0 dd 9b 9d bd bf f5 1a 3d bc 0e 5d 3d ee 9e 16 3d
       -0.07695744 0.037832018 0.05396913 0.03677266
0001c0 6a 42 02 bd 60 99 88 bd 01 ab 2c be 5b 8e 21 3e
       -0.03180162 -0.06669879 -0.16862108 0.1577696
0001d0 0e 94 a0 bd 76 a7 e4 bd dd 90 ff bd 70 bf 99 bb
       -0.07840739 -0.11164753 -0.12478802 -0.0046920106
0001e0 a0 48 bc bc 2f ea 24 bd e3 30 6f 3e a0 98 18 3e
       -0.022983849 -0.040262397 0.23358493 0.14901972
0001f0 16 b3 17 be c6 0f 0a 3e 47 85 17 be b0 20 9e 3d
       -0.1481441 0.1348258 -0.14796935 0.077210784
000200 af 24 36 3d 61 9a 10 3e 90 11 51 3e b2 f0 1f 3e
       0.044468578 0.14121391 0.20416856 0.15619162
000210 51 aa 0b 3e 90 fb 28 be 1f b9 6f bd 81 ce 0e be
       0.1363919 -0.16502213 -0.058526155 -0.13945962
000220 57 2c 2e bb 7b c8 48 3d ae f6 74 bc 11 c2 56 3d
       -0.0026576722 0.049019318 -0.014951391 0.05243117
000230 dc b8 20 3d 77 f8 e8 bd 53 d9 c5 3d d2 34 c9 bd
       0.039238796 -0.11375516 0.09660592 -0.09824528
000240 c2 d8 fd 3b fb 27 20 3e f9 79 05 be e5 ff 5f 3d
       0.007746787 0.15640251 -0.1303481 0.0546874
000250 80 1f 1a be 1d 27 93 3c ca 29 11 3e 9d b9 d0 bd
       -0.15051079 0.017962987 0.14176098 -0.10191653
000260 c7 60 15 3d 37 e4 02 3d 4c a7 91 3c dd c9 1a 3d
       0.036469247 0.031955924 0.017779969 0.037790168
000270 75 1e f6 bd 66 74 0a 3e 6e 25 f4 bb d9 c5 ba bd
       -0.12017528 0.13520965 -0.007450751 -0.09119768
000280 a2 ec 18 be 34 79 ad 3d 54 ab 99 3c 88 21 66 bd
       -0.14934018 0.08470383 0.018758453 -0.05618432
000290 d5 19 01 be 09 8e f9 3d 62 b2 25 3e 69 e4 23 bd
       -0.1260751 0.12185294 0.16181329 -0.04001275
0002a0 5c 33 1e 3e a4 6c f4 bd fd a2 37 bc a9 2b 0d 3e
       0.1544928 -0.11934784 -0.011208293 0.13786186
0002b0 79 46 c8 bd dc 37 bc 3c 85 74 f0 3d 9b e9 e1 bc
       -0.097790666 0.022975855 0.11740974 -0.027577212
0002c0 68 33 f9 3d d8 13 e8 bd ba e1 23 3e 5a 07 9d 3d
       0.12168008 -0.1133191 0.16004077 0.07667418
0002d0 28 ca 83 3d cf b2 07 3e c3 bb 3b 3e 25 4b 24 bd
       0.064350426 0.13251804 0.18333344 -0.040110726
0002e0 20 12 cf bd 74 2d 36 3e c5 98 90 bc 29 36 82 3d
       -0.10110879 0.17790776 -0.017650971 0.063579865
0002f0 10 c1 30 3e dd a6 e9 bd c2 fc 25 3e 64 f9 fd bd
       0.17261147 -0.1140878 0.162097 -0.12401083
000300 ae 06 81 bd a2 46 b4 bd 75 a7 9d 3d 5d 05 4f bd
       -0.06300102 -0.08802535 0.076979555 -0.050542224
000310 d2 24 31 3e 19 22 11 3e d5 e1 b6 bc 44 d5 0c be
       0.17299202 0.14173163 -0.022324482 -0.1375323
000320 ef 42 03 3d 5a 72 2f be b7 16 f3 3d 10 3a 2e 3e
       0.032046255 -0.17133465 0.11869567 0.17014337
000330 db 71 b9 3d 6f b5 92 3d 64 4e 9a bd 39 1f dd 3c
       0.09054919 0.07163512 -0.07534483 0.026992427
000340 ea 4f 6e 3d 47 28 1b 3e 66 41 81 3c 00 83 13 3d
       0.05818168 0.15152083 0.015778255 0.036013603
000350 ca e3 e0 3c ce 50 05 3e 83 c0 17 3e ad ca 48 bd
       0.027452368 0.13019106 0.14819531 -0.04902141
000360 27 de 24 be e7 b8 1e 3e 03 3b 98 bd 58 73 f8 bd
       -0.1610037 0.15500222 -0.074331306 -0.12131375
000370 80 5c 57 bc 28 70 2a 3e 2e ed 15 3e 5d 28 08 be
       -0.013144612 0.16644347 0.14641258 -0.13296647
000380 de 90 b5 bd ed a1 94 3d f1 56 10 3d 09 4f 40 bd
       -0.08865522 0.072574474 0.035239164 -0.046950374
000390 fd e1 24 bd 45 d4 26 3e 3b 2b db 3c 6e b7 12 be
       -0.04025458 0.16291912 0.026754012 -0.14327785
0003a0 c2 ad 0a 3e e3 63 33 3e 59 9c b0 3d 3b 77 78 bd
       0.13542846 0.17518573 0.08623571 -0.060660582
0003b0 b8 09 04 bd b0 73 9f 3d 14 47 31 3e f7 c0 8b 3d
       -0.03223583 0.077857375 0.1731227 0.068239145
0003c0 ed dd 4c be 42 fe ab 3d 25 8b 29 3c 06 3c 23 be
       -0.20006533 0.08398105 0.010348116 -0.15940866
0003d0 37 61 8c bd 21 4a 00 3e 4d 0d 3e 3e a5 18 aa bc
       -0.0685448 0.12528278 0.18559761 -0.020763705
0003e0 91 48 23 be b9 43 41 bb 12 07 0d 3d 43 f3 fc 3c
       -0.1594565 -0.0029489829 0.03443057 0.030877715
0003f0 6e ab 10 3e fe 5a f8 bc f7 f3 fa bb b1 1e 00 3e
       0.14127895 -0.030316826 -0.0076584774 0.12511708

dnn/logits/MatMul f4 [1, 64]
000000 20 57 ab be 2c da 93 3d 5b a4 8c 3e ee e6 c1 3e
       -0.3346491 0.07219347 0.27469143 0.37871498
000010 4a 2e 81 be 88 75 a5 3e 2a 7e a8 3e a5 52 9d 3e
       -0.25230628 0.32316232 0.32908756 0.30727115
000020 85 a8 cd 3e 56 b9 e6 3e 57 94 9c 3e ca c4 66 3e
       0.40167633 0.45063275 0.30581924 0.22536007
000030 1f 53 7c 3e 3c fd ca 3d 31 16 37 be 24 9a 4e be
       0.24641083 0.09911582 -0.17879559 -0.20175987
000040 82 98 91 3e 19 b1 99 be 44 06 18 bd 06 f0 52 be
       0.28436667 -0.30017927 -0.03711535 -0.20599374
000050 e2 2e 88 be f1 56 8e be 34 34 bb be 69 12 b8 bb
       -0.2659827 -0.27800706 -0.36563265 -0.005617429
000060 09 9d a5 be 1c f4 96 bd eb 0d 15 3f 27 8a 66 bd
       -0.3234637 -0.07370779 0.5822436 -0.056284096
000070 be de 74 be 45 1a 18 be 4a c9 48 be 34 af b4 be
       -0.23913094 -0.14853771 -0.19608036 -0.3528992
000080 a4 ee 87 be 60 46 c2 3e 0b 34 96 bd 76 d8 9a be
       -0.26549256 0.37944317 -0.07334145 -0.30243272
000090 44 8a 0b be d9 21 40 be 9c 35 c6 3e 8c b0 a1 3e
       -0.13626963 -0.18762912 0.38712776 0.31580007
0000a0 a8 f2 6a 3e 13 c7 24 3d 35 7a 75 be 22 3f 25 3c
       0.22944129 0.040228914 -0.239724 0.010085853
0000b0 ab 05 3f be 73 6e 3e 3e f6 19 2c be c2 92 c9 be
       -0.18654506 0.1859682 -0.16806778 -0.3936978
0000c0 67 57 f7 3c 83 86 82 3e 45 f9 91 bd fe 3f 1b 3d
       0.030193044 0.2549325 -0.071276225 0.037902825
0000d0 b3 17 6c 3e f0 9b c4 be 94 27 48 bc c8 f7 a9 3e
       0.23055916 -0.3840022 -0.012216467 0.33196855
0000e0 32 fd 7c be 6e dd ca 3d 9b f0 35 be 3d ee 9d be
       -0.24705961 0.099055156 -0.17767565 -0.30845824
0000f0 86 55 73 be 0a a7 66 bc 5f c9 29 3e 59 b4 66 be
       -0.23763093 -0.014077911 0.16580723 -0.22529735
